nba/src/artifacts/lstm_model_tuned.pth (torch, 873797 bytes, 16 tensors)

weight f4 [128, 284]
00000000: 6b07 4cbc 4638 983c 81f4 02bd 6d82 6cbd
00000010: d664 a83c 94de 373d 1540 4abc 1e38 ecbc
00000020: ed37 02bc c7d3 efba 28b8 65bd 2d60 40bc
00000030: d2eb 56bd 64d8 42bd 3839 b4bc 5b27 6cbd
00000040: de36 91bc 3466 183d d808 40bd ba21 0cbd
00000050: f4a4 e13c 79cb cfbc 98b1 f2bc 08fb f8bc
00000060: de35 1bbd 8597 023c d970 ec3c f282 78bc
00000070: ed2d 5bbd 50e0 1e3d b89e 38bd 72b7 6cbd
00000080: 9ea5 b43c e543 3ebb 3af3 24bd 2512 f5bc
00000090: eb38 4b3c e704 0cbd 3092 fabc 0116 0a3d
000000a0: 2450 5f3d ad35 593c 7dc3 a2bc 7de1 b3bc
000000b0: 7603 343d 9291 3bbc 95ba e13c 2144 0d3d
000000c0: d87c 853b b71a 023d c58e 47bd d0e2 5dbb
000000d0: ad43 97bc 7627 15bd 9787 23bd 77b3 133d
000000e0: d53e 083c 6ebb 39bd b9d5 cfbc aa35 ce3c
000000f0: df57 a0bc 8eb9 1f3d bde8 733c f012 073d
00000100: 4c52 1d3d 0c0e 51bd bf6d b7bc 41f3 8db9
00000110: fbb6 733c 1324 df39 2a20 ac3c 71e8 4ebb
00000120: 5e8a 903b 351a 21bc fd8c 1ebd 1604 0a3d
00000130: 55a1 03bd c4b6 21bd 0a8f 3abd f6c8 29bc
00000140: c42d 9bbc 2e75 233d 6b88 d33c 04b5 523d
00000150: 452b 41bd 979b 503d 3817 9bbc 2220 dc3c
00000160: 9c47 36bd 347f b23c b7b2 50bd 4a11 43bd
00000170: fd9a 323d 1de0 7a3b b47f 223d 3506 8c3c
00000180: dd76 333d 4da1 833b 051f 0bbc 18d0 cdbc
00000190: 915e 2e3c c19b a4bc a361 cabc 9ef9 00bd
000001a0: 58b9 47bd 026d 8b3c 7b9b e73c b642 823c
000001b0: f287 3b3d f1dc 7fbc 3178 37bd 995e 63bd
000001c0: 872b b8bc 77e8 55bd df9a 6fbc 45f8 aebc
000001d0: 9020 5abd adb5 953c e780 bcbc 000d 5b3d
000001e0: 67bc d43c 3617 ffbc d42c 96bc adc6 7b3c
000001f0: 6da8 983b ef28 67bd e629 02bd 14e5 fc3a
00000200: 8c69 b73c f42d c2bc 86dd 323d 124f 273c
00000210: b200 1c3d c28a 9d3c dc1b 973a 6bc5 babb
00000220: d3e5 1c3c 081d 27bd 8239 be3b b5d2 363d
00000230: 397e 253d 66ed 5bba a173 febc ddca b33c
00000240: ab41 50bd e050 57bd 0911 7e3c d0f2 8a3b
00000250: 4ef2 1bbd 205a 753c a659 4abd 037c b93c
00000260: 9485 98bc eaf3 213d 77ea a33a 606f 77bc
00000270: 1b33 233b 3e7e 5c3d 8f21 50bd 13e8 2f3b
00000280: a9ea 243d abbd 72bc 0945 77bc 8667 e6bb
00000290: e22b 54bd a3c0 6cbd 1ec4 6d3d ef66 3e3d
000002a0: e3fd 593d c29c 603d abe5 55bd 9929 6f3d
000002b0: d7e7 3e3d f30d 88bc ce27 75bc 4813 32bd
000002c0: 71aa 65bd b217 98bc 9ccf 323d 519c c8b8
000002d0: 1477 9f3c 70af 2dbd fe50 40bd d7f3 c83b
000002e0: 5cd4 93bc 33ee e3bc f9b3 5f3c b697 4dbd
000002f0: 56c0 05bd aabf 683d ea07 00bd a65e 553d
00000300: b95c 413c d9e9 3dbc 826b 8bba de78 9d3c
00000310: a697 29bc fa1b 4fbc cbfd 743c 8f90 dabc
00000320: fc61 d83c a9f1 30bd ee1e 60bd 3a47 123d
00000330: 199b 2bbc 36ec 43bd 5d71 e7ba bcc5 ac3c
00000340: 77fb 393d 8253 51bd af4a d9bc 708a 4c3c
00000350: e3a2 e43b 34cc 5fbd b605 13bc cd18 743c
00000360: e82e a3bc c205 6dbd 6738 5cbc 0669 913c
00000370: 3dff c53c bd03 6e3d d99d 6a3d 29d2 fbbb
00000380: cc5a 093c e1e7 cb3c b2ef 3c3d afd9 203d
00000390: b781 863c e6a4 15bc 6da8 43bd b400 fe3c
000003a0: cc7f cebc 477e 94bb 8b68 263d f996 e83b
000003b0: e14c 6abd 3e92 383d 054b 50bd 15a4 e3bc
000003c0: 01e0 4dbd c55d 60bc 1049 3ebd 3f10 1dbd
000003d0: 6478 b1bc 2535 1cbc ce42 613d c4ae 32bd
000003e0: c16c 8f3c bbc7 dbbc 3d4d 813c c8e6 633d
000003f0: 931e 503c e845 6ebc 5c91 233d a370 24bd
-0.01245294 0.01858152 -0.03197146 -0.05774157 0.020555895 0.04489 -0.01234438 -0.028835353
-0.007947904 -0.0018297367 -0.05608383 -0.01174168 -0.05247099 -0.047569647 -0.02199994 -0.05765472
-0.017726358 0.037206843 -0.046883434 -0.03421185 0.027544476 -0.025365578 -0.029625699 -0.030393139
-0.03789317 0.007970695 0.028862404 -0.015167939 -0.053510595 0.03878814 -0.04507324 -0.057792135
0.022051629 -0.0029032168 -0.04027102 -0.029915879 0.012403707 -0.034184363 -0.030587286 0.03371239
0.054519787 0.013257426 -0.019868607 -0.021958107 0.043948613 -0.011448281 0.02755479 0.0344888
0.0040737204 0.03176376 -0.04872014 -0.0033857115 -0.018464888 -0.036414586 -0.03992423 0.036059823
0.008315762 -0.045344763 -0.025370466 0.025172073 -0.01957315 0.038995318 0.014887032 0.032977045
0.038408563 -0.051038787 -0.022391198 -0.00027074854 0.014875169 0.00042560752 0.02101143 -0.0031571651
0.004411026 -0.009832908 -0.038708676 0.033695303 -0.03213628 -0.03948094 -0.04554657 -0.010362854
-0.018942721 0.039906673 0.025821885 0.05144216 -0.047160406 0.050929632 -0.01893197 0.02687079
-0.044501886 0.02178917 -0.050951686 -0.04762391 0.04360484 0.0038280555 0.03967257 0.017092803
0.04381453 0.0040170313 -0.008491282 -0.02512364 0.010642664 -0.0200938 -0.02470476 -0.031488054
-0.048760742 0.017019752 0.028272381 0.01590095 0.045783944 -0.015616641 -0.044792358 -0.055510137
-0.022481693 -0.05222365 -0.0146243265 -0.021358619 -0.05325371 0.018275106 -0.023010684 0.053479195
0.025968743 -0.031138998 -0.018331923 0.015367192 0.00465875 -0.05643552 -0.03177824 0.0019294345
0.022389196 -0.023703553 0.043668292 0.010211723 0.0380866 0.019231204 0.0011528688 -0.0056998036
0.009576279 -0.04079917 0.0058051953 0.04463454 0.04040358 -0.0008389562 -0.031060996 0.021947319
-0.050843876 -0.052567363 0.015506991 0.0042403713 -0.038072877 0.014975101 -0.0494019 0.022642141
-0.018618383 0.039539255 0.0012505789 -0.015102237 0.0024902287 0.05383133 -0.050813254 0.0026841208
0.040262852 -0.014815728 -0.015092143 -0.007031384 -0.051799662 -0.0578009 0.05804836 0.046484884
0.05322064 0.054836996 -0.05222098 0.05838928 0.04660782 -0.016608214 -0.014963103 -0.04347542
-0.05607075 -0.018565986 0.043655023 -9.565859e-05 0.01946596 -0.04240364 -0.04695224 0.0061325836
-0.018045597 -0.027823543 0.013653749 -0.05019351 -0.03265413 0.05682341 -0.031257547 0.052092217
0.011801892 -0.011591398 -0.0010636898 0.019222673 -0.010351097 -0.0126409475 0.014953087 -0.026680259
0.02641391 -0.043199215 -0.054716997 0.03571246 -0.01047399 -0.04783269 -0.0017657686 0.02109038
0.04540583 -0.05110503 -0.02652487 0.012484178 0.0069774254 -0.054638103 -0.00897353 0.014898491
-0.019919828 -0.05786682 -0.013441182 0.017750274 0.024169559 0.058109034 0.05727944 -0.007684965
0.008383464 0.024890842 0.04612703 0.0392701 0.016419275 -0.009133553 -0.047768045 0.031006195
-0.025207423 -0.004531655 0.040627044 0.0070980755 -0.057202224 0.045061342 -0.050852794 -0.027788201
-0.050262455 -0.013694231 -0.046456397 -0.03834557 -0.021663852 -0.009534155 0.05499535 -0.0436237
0.017507913 -0.026828637 0.0157839 0.055640012 0.012702602 -0.014543034 0.039933547 -0.04014648

bias f4 [128]
00000000: 840f 7cbc f1da 543d 5574 453d 3fda 2abd
00000010: 3a86 54bd 8dbc bc3b 3779 753c aa7f 1dbc
00000020: 68e9 6d3d d09b 0f3d e9e0 48bc 3a8b 263d
00000030: f13e 003c d3c0 c03c a067 20bd c190 9c3d
00000040: e8ab 623c dbd8 503d 0468 273d cd5a 1c3d
00000050: 7147 e6bc b93e 03bd 0abb 0b3c 3420 33bd
00000060: 0800 1dbd 4bae 60bd 7e44 3c3d d858 0c3d
00000070: 2cea 52bd 6d00 c33c 9c50 70bc 03de 67bc
00000080: c576 e43b df85 233d 03c8 17bc b2f6 1eb8
00000090: c40d 02bd a8e1 b53c 6932 6cbd 008f 20bd
000000a0: cea5 27bd 29fa 8bbc ffd7 3ebd 8349 f53c
000000b0: 6012 41bb 55d8 023d 85a6 80bc 93e3 483d
000000c0: 8b07 17bd cb61 12bd a8ab a2ba a791 813c
000000d0: 08e0 42bd cfb8 36bd 877a 15bd 71e4 a13c
000000e0: 5eb6 ff3b 2e9e 0cbd 2f28 54bc 02b7 24bd
000000f0: cd40 1d3d 378f d23c 7831 263c 4da2 013c
00000100: c4ce 21bd bd18 54bd 9e83 6e39 7a9e 1f3c
00000110: 3d75 15bd b7f2 d43b 0584 ae3c d54f 08bc
00000120: aae6 653d 4d6b 5a3c 7e35 b5bb 6d10 023d
00000130: 45e0 5bbd 4c87 0b3c 9ed0 59bd e248 4b3d
00000140: 7cdf 91bc 1b98 833b 4ab8 e53b b38a 3dbd
00000150: 2d73 1abc 0a30 24bc 1836 42bd 52ac 0bbd
00000160: 9129 f73c 34a5 17b6 bcf7 2cbc 7bfd 1c3d
00000170: a1fb 9b3b b9f8 f6bc 8a18 213d 771f 5e3d
00000180: 0d6a 003d 4ccd f3bc da07 8dbb f4c8 333d
00000190: 2ab8 063d 8865 233d 4e8f 25bd 84dd ac3c
000001a0: b8da 703c 427f 4dbd a602 383d 7476 62bc
000001b0: 9291 63bc e623 5cbd ec5b 643c 0c9d 5bbc
000001c0: 1f9c 93bc fac3 4cbd d079 643c f45d 4abb
000001d0: 36c8 abbc 293d 51bc 79e2 6bbb 1fa8 13bd
000001e0: f60e 52bd 2d1a 163d 66fa 49bd 9b87 02bc
000001f0: da45 333d ed5f 06bd 4484 a9bc 1565 a23c
-0.015384559 0.05196661 0.048206646 -0.041712042 -0.05188582 0.0057597817 0.014982513 -0.009612957
0.05808392 0.035060704 -0.012260654 0.04066012 0.007827506 0.023529446 -0.039161325 0.07644797
0.013834931 0.05098806 0.04087068 0.038172532 -0.028110238 -0.03204224 0.00852848 -0.043731883
-0.038330108 -0.05485372 0.045963757 0.034264416 -0.051492855 0.023803914 -0.014667656 -0.014152053
0.0069721662 0.03992259 -0.009263995 -3.789989e-05 -0.03175141 0.022202328 -0.057665262 -0.039198875
-0.040929608 -0.01708706 -0.04659271 0.02994228 -0.0029460415 0.03194459 -0.015704403 0.049045157
-0.036872428 -0.035737794 -0.0012410777 0.015816523 -0.047576934 -0.04460984 -0.036493804 0.01976225
0.0078037223 -0.03433054 -0.012949034 -0.040213592 0.038391877 0.025703056 0.01014363 0.007912231
-0.039503828 -0.051781405 0.0002274648 0.009742374 -0.03648876 0.0064986604 0.021303186 -0.008319815
0.05612818 0.013331247 -0.0055300584 0.031753946 -0.053680677 0.008516144 -0.05317747 0.049630053
-0.017806761 0.004015935 0.0070104944 -0.046274852 -0.009426874 -0.010021219 -0.04741487 -0.034099884
0.030171188 -2.2596914e-06 -0.010557111 0.038327675 0.004760221 -0.030147897 0.039330043 0.054229226
0.031351138 -0.02976098 -0.0043039145 0.043892816 0.032890476 0.03989175 -0.04041987 0.02110172
0.014700584 -0.05017019 0.0449244 -0.013822187 -0.013889687 -0.053745173 0.0139379315 -0.013404142
-0.01801878 -0.049991585 0.013945058 -0.0030878754 -0.020969491 -0.012770929 -0.0035993143 -0.036049005
-0.0512838 0.036646057 -0.049311064 -0.007966901 0.043767788 -0.032806326 -0.020692952 0.01982359

weight_ih_l0 f4 [512, 128]
00000000: 7900 72bd 62c2 94bc 702e ae3d 3f89 583d
00000010: c3f0 2a3d 16fc a43c b03d 36bd 57e6 74bd
00000020: f223 75bc d83f 9f3c 40b4 f3bc 8ae3 a8ba
00000030: c931 57bd 638d 803b 861d 5bbd 5fe9 773b
00000040: 9cb4 90bd 63b6 57bc 6268 9fbd 8e38 d93d
00000050: 9b7b 8cbd d4b8 73bd b61a 42bd 5bb1 95bc
00000060: 9c72 7bbd 7de5 ce3d 1f72 80bd 15e5 50bd
00000070: 91c9 f73b 191a 6cbd 96aa 643d 3f9d 853d
00000080: f27e 113d d4de 843d 98e0 b63d a4d8 d9bc
00000090: 159d 5a3d fbb3 78bc d6f8 30bd 7d44 56bd
000000a0: 86d9 53bb 4c5a 09bc b9c1 d23c 25cb 833b
000000b0: 74c9 003d 68ec e7bc 617e ccbc 8be5 ec3b
000000c0: a0c5 71bd bad0 bd3c 0032 9abd 8d5b 42bd
000000d0: eb28 50bc 14ec 5c3c 8972 a3bd 1b11 89bc
000000e0: 7f62 e0bc 8b12 39bd 0a63 8fbd b62d 4ebd
000000f0: 7194 b2bc 961d 623d 3cc1 4b3c 9b88 2c3d
00000100: c4b2 8f3c 6aaf c0bc a1d3 4a3d 79de 95bc
00000110: 80b7 8abd f653 7b3d 8211 0dbd d687 86bc
00000120: b750 833c ac4f d53d ffef 23bd 87eb 5fbd
00000130: e9f3 92bd 9c55 53bd 9914 673d d58d 31bd
00000140: 2e15 a7b9 c111 17bd dc5a ccbd 7c4d 27bd
00000150: 7891 8bbd fc12 f5bc 7495 043d 161a 043c
00000160: 0f41 2b3d 1136 4b3d dd94 95bc 63fc bc3d
00000170: b28f 3e3d b8ed 913c a10b da3c ef9f a13c
00000180: 7402 393d 89e5 f7bb a248 8f3d 7adf abbc
00000190: 1108 97bc 02b6 40bd a382 87bd 9783 56bd
000001a0: 8214 a83d 73ee 4a3d a921 943d 3bcc 753d
000001b0: 01f9 d4bc 65f0 ad3c 4a4f 9fbd 77e6 293d
000001c0: 4dbb 8c3c e672 a53c de98 62bd 4f29 d8bc
000001d0: d37c a83d 84b2 b03d 2f11 5f3c 1a3e 4f3d
000001e0: 4ea6 9abc 8a01 a2bc 9a1d 47bd 3796 87bd
000001f0: 350e 083d 934b a63d 6955 1e39 a77a a13c
00000200: 8040 423d d765 933d 476c b7bd 670d 813d
00000210: b518 a83d 9c05 493c cd93 473d e4f6 883d
00000220: 28e6 1ebe e0ba 0abe b8a1 bf3c c968 b1bd
00000230: b4d0 0dbe ea4a 833c ecf3 3fbd 0ab0 00be
00000240: b404 923d 6fd9 9c3d e512 8a3c 5f50 06be
00000250: 9362 8bbb 4aa9 863c e0cc 533c 8e3f fd3c
00000260: d4be 71bd 39f7 d5bd 104d 19be 4f3b d2bc
00000270: b5b8 01be eea0 a33d ec25 02be 9da2 833d
00000280: af3d f7bb 0c0a 69bd 567c 0bbe 75cf a53b
00000290: 5585 0b3d 2efa 83bc a98e febd d62c f0bc
000002a0: 4d9e 38bc 8f6e 3abd 2628 b43b 64bf febc
000002b0: 0aa8 02be c291 1a3d 176b 943d dfb5 5d3d
000002c0: c370 fa3c a1a7 afbb a318 b33d 74f2 6b3d
000002d0: 7fc3 113d 53a8 c83c c158 d8bd d31a 41bb
000002e0: 89a2 97bc c3f4 c3bc 9fe1 35bd 32aa e6bd
000002f0: 4164 b5bc 016c debc be19 873c 8794 5f3d
00000300: d782 8b3d 784c 543d 59ce 5fbc d569 8c3d
00000310: 198f d0bc 39da 48bd 22a6 1fbe 253f 5abd
00000320: 50cb 13be 21af 91bc 31d5 e9bd 0144 13be
00000330: baf5 de3c eebd cfb9 51ef 66bd 686e 90bd
00000340: c96a 913d 84ac 7abd 1fc8 87bd 9d44 64bd
00000350: 177b 72bd f75a d2bd a99c 9c3d 8e39 c7bb
00000360: fa39 b2bd f11f f7bd 03e5 e53c 7cb1 1cbe
00000370: a463 24bd 8657 eabc 89a7 0abd f18c 0cbd
00000380: 4805 b03d 88bb 95bc 6f90 593d 2ca3 95bd
00000390: f554 1bbd 3e64 ae3d a0bb 3dbd cbaa dfbd
000003a0: 4b5c b23d 635d c93c d5e1 80bd faaa 0bbd
000003b0: 2293 7fbc d9b8 e9bc a852 863c 818a 5abd
000003c0: 8fa3 cbbd f43e 893d 1dc3 a23d a696 bfbd
000003d0: 7b58 acbd ba05 68bb c8ee 853d be65 273d
000003e0: bd9d b93d 44b5 d83c 9f63 92bd c166 97bd
000003f0: 11b5 3abd 68b4 ef3b 81a2 13be 2a2b 46bd
-0.059082482 -0.018159095 0.08504951 0.052865263 0.041733515 0.020139735 -0.044492424 -0.05978998
-0.014962183 0.019439623 -0.029749036 -0.0012885195 -0.052537713 0.0039231046 -0.053494953 0.003782831
-0.070656985 -0.013166043 -0.07783581 0.1060649 -0.06859513 -0.059502438 -0.047388755 -0.018273046
-0.061388597 0.10102365 -0.06271767 -0.05099972 0.0075618704 -0.057642076 0.055826746 0.06524133
0.035521455 0.064878136 0.089295566 -0.02659256 0.05337246 -0.015179629 -0.04320606 -0.05231141
-0.00323257 -0.008383345 0.02572714 0.0040220194 0.03144212 -0.02831097 -0.024962606 0.007229512
-0.05902636 0.023170818 -0.07529068 -0.04745059 -0.012705068 0.01348402 -0.0798083 -0.01673179
-0.027390717 -0.0451837 -0.07001312 -0.050336562 -0.021799298 0.055203997 0.012436207 0.042122465
0.017541297 -0.023521144 0.04951823 -0.01829456 -0.06773281 0.06135937 -0.034440525 -0.016422193
0.016029699 0.10415587 -0.0400238 -0.054667976 -0.071754284 -0.051595315 0.056416128 -0.043348152
-0.00031868502 -0.036882166 -0.099782676 -0.04084538 -0.06814855 -0.029916279 0.032369092 0.00806286
0.04181009 0.04961211 -0.01825946 0.092278264 0.046523757 0.017813548 0.026616873 0.019729583
0.045168355 -0.0075652045 0.069962755 -0.020980585 -0.018436464 -0.047048576 -0.06616714 -0.052371588
0.082070366 0.04954381 0.07232983 0.060009222 -0.02599764 0.021232793 -0.07778795 0.041479554
0.017179156 0.02019639 -0.055321567 -0.026386885 0.08226933 0.08627799 0.013614937 0.050596334
-0.018878128 -0.019776125 -0.048612215 -0.06620448 0.033216674 0.081198834 0.00015099872 0.019711806
0.047424793 0.07197159 -0.08956199 0.063013844 0.082078375 0.012269404 0.04872494 0.06687716
-0.15517485 -0.1354785 0.023392543 -0.08662564 -0.13849145 0.016026933 -0.04686348 -0.12567154
0.07129803 0.0765866 0.016854713 -0.13116597 -0.0042536943 0.016438145 0.012927264 0.030914094
-0.05901988 -0.104475446 -0.14970803 -0.025663046 -0.12668116 0.07989679 -0.12709779 0.064275004
-0.007545195 -0.056894347 -0.13621649 0.005060131 0.034062702 -0.016110506 -0.12429554 -0.029318254
-0.011268211 -0.045515593 0.00549795 -0.031097122 -0.12759414 0.03773666 0.07246988 0.054128524
0.030571347 -0.005360559 0.087449335 0.05760427 0.03558683 0.024494326 -0.105638035 -0.0029465451
-0.01851012 -0.023920422 -0.044404622 -0.11262931 -0.022142531 -0.02715111 0.016491767 0.054585006
0.06812065 0.05183074 -0.013660037 0.06856123 -0.02545886 -0.04903624 -0.15590718 -0.053282876
-0.14433026 -0.017783703 -0.11417616 -0.1438141 0.02721678 -0.00039623625 -0.056380574 -0.07052308
0.07100446 -0.06119968 -0.06629967 -0.055729497 -0.05919942 -0.102712564 0.07647068 -0.006079859
-0.087024644 -0.12066639 0.028063303 -0.1530208 -0.040134087 -0.028606188 -0.03385118 -0.0343141
0.08594757 -0.018277898 0.05311626 -0.07306513 -0.03792282 0.085152134 -0.04632151 -0.10921248
0.0870901 0.024580663 -0.06293074 -0.034098603 -0.015599044 -0.028530525 0.016396835 -0.053354744
-0.09943306 0.067014605 0.07947371 -0.09354906 -0.08415314 -0.0035403804 0.065396845 0.040868513
0.09063289 0.026453622 -0.071479075 -0.073926456 -0.045582835 0.0073152073 -0.14417459 -0.04838101

weight_hh_l0 f4 [512, 128]
00000000: 3420 873d a7c4 083b 8c1a 43bd 4ae7 14bc
00000010: 2520 9bbd 2577 5b3d 2d23 103d 39cd eabb
00000020: 3e2a b53b 090c bebd a444 94bd d48c b33d
00000030: 42f9 c93c 2835 2cbd 48d3 f03c 9976 c1bd
00000040: bc48 9dbd f035 443d 6a55 febc 6090 a83d
00000050: 3f0a 4b3d 39cf 003d 26ca ef3c d61b 1a3d
00000060: 59e1 a2bd c648 1e3c dd3b 96bd 4914 d7bc
00000070: 8cd6 643d 9dbb bbbc d3ff 06bd bc70 603d
00000080: c630 73bd 60dd 64bc 33ff 02bd bbeb 2e3c
00000090: 34a2 99bc 2a44 83bd c1c0 24bd a980 bcba
000000a0: d2ec a2bd be4b 073d 3dc3 20bd 3a8d bcbd
000000b0: f764 efbc f384 a2bd f3d8 a73c 7612 30ba
000000c0: e35a ed3b 70f7 55bd 1285 243d 1264 5bbd
000000d0: ec19 003c 0573 c23d 48a5 80bd f8b2 9dbd
000000e0: 7892 13bd 9d41 843d c675 9cbd cc57 24bd
000000f0: 83bb 303d 1371 5ebd 3556 a9bd 5fb5 21ba
00000100: 2647 523d 276d 78bd b601 59bc 5f8a 08bd
00000110: f07d b9bb a938 b03d 9ee6 bd3b 39ac fcbc
00000120: 1f6a a0bd e259 36bd 6d06 fa3c f7d5 9d3d
00000130: b179 52bd 2a1c 2b3c 7bd5 6b3d 6141 ff3c
00000140: a5e9 f6bc ee0d 9dbc 01a7 8abd 4369 b53d
00000150: fa22 923d 45e1 b5bb 5745 383c 01eb 3dbc
00000160: 4076 ad3c 547a b03c 21eb 713d e213 7a3d
00000170: 5c10 44bc c93a b6bd 2b54 a1bb dac2 9e3d
00000180: 386e 47bd 28a4 5e3d de36 97bd 12a3 14bd
00000190: 1587 c9bc 8719 b53c fb6e a53d 5aa1 34bd
000001a0: df04 b3bd 135a 453d 836f 2b3d cd6d aa3d
000001b0: b989 17bd 387a a13d 5d78 303d f120 0e3d
000001c0: e676 86bd ca27 70bd 1515 4ebd 8889 a3bc
000001d0: eaf2 94bd 9448 a73d fd90 c3bc 6e94 6dbd
000001e0: 2806 82bd 1fd8 abbd 5cba e03c 96b1 a4bd
000001f0: 2328 473d 634d 67bc ce0e 18bd 1e38 42bd
00000200: 2de6 a2bd 441e c43b 64eb 95bc 9e52 2f3c
00000210: 4d0b 87bd c792 a93d 6def 953d d4e7 cfbd
00000220: 8fff c73c af4b 723d e53c 1a3c 2f80 beb7
00000230: 21f4 1fbc ad68 253b bf77 513d 11fc 053d
00000240: ff17 6c3d 7953 12be 9512 e73c 2a7f 533d
00000250: ab9d b3bc e6d7 7bbc 42d7 a13d 475f bcbd
00000260: e67a c5bd 28d8 a8bc a425 94bd 4f5b e8bb
00000270: c876 e2bd ec9e b9bd 51a2 abbd 14b7 423b
00000280: 6072 c43d 8d86 1cbd 4e47 8bbd ad23 bb3d
00000290: cd66 61bc cbc4 843d d560 dfbd 2372 c3bc
000002a0: 6564 8e3d 0c79 0a3e fa40 143e 0a13 143d
000002b0: 13ca 643d 6202 9a3d 4cbd a5bc 1f9e 323d
000002c0: 2ad9 ffba 1dc7 b23d 41e8 84bd c4e0 60bb
000002d0: 942d bd3d 326a dfbd 44d6 173c 5cec f73c
000002e0: e25a a2bd b8c0 e73c 6b7e 103d 1516 95bc
000002f0: 3985 fcbc 89ed a5bb 07b2 9c3d a0f3 93bc
00000300: ba81 543c fdd1 71bd 084e 86bd a4a0 acbb
00000310: 1e66 d4bd 08c7 ef3d cb16 2ebd 6f83 b03d
00000320: a68a 48bd 14f7 afbd a7cd 01bc 8fd5 5fbd
00000330: 59d8 bc3d a4d9 f3bc 9966 18be 4cd7 d3bd
00000340: 5e4f 96bd 66c9 f1bd 9508 ddbc 14e9 80bd
00000350: f788 c63d f093 2fbd c4ae c93d 5219 4b3d
00000360: 788d f1bc 2804 c93d 697e 76bc f308 1abc
00000370: 79a1 783d 9d6b 3e3d e080 91bd afc7 95bd
00000380: 1625 36bd 01ee bebd 10f5 74bd e9ba 073e
00000390: c444 a5bc 3b0e bbbd 6dd8 023d cb46 c2bd
000003a0: 8bdc 473c efd5 4cbc 893d 0cbe aaf5 afbd
000003b0: 2028 863d c011 bcbd 0157 c53b 95f5 36bd
000003c0: 4e1b 4b3a 5c26 0bbe 4c86 14bc 63b8 aa3d
000003d0: 5da7 b2bc 19f4 a2bd 52ae 4a3d ea04 323c
000003e0: 4952 1f3d 7fd4 b8bd e012 d33c 5451 e7bc
000003f0: 8e96 eb3c a093 2fbd d577 67bb 03f5 16bd
0.06597939 0.0020869167 -0.04763274 -0.009088347 -0.075744905 0.053580422 0.035189796 -0.0071655777
0.0055287173 -0.09279639 -0.07239655 0.08767095 0.024654988 -0.04204288 0.029397622 -0.09446449
-0.076798886 0.047903 -0.031046588 0.08230662 0.04957032 0.031447623 0.029271197 0.037624203
-0.07953138 0.009660905 -0.07335637 -0.02625479 0.05586867 -0.02291661 -0.032958817 0.054795012
-0.059372686 -0.013968796 -0.03198166 0.01067632 -0.018754102 -0.06409486 -0.040222887 -0.0014381605
-0.07955326 0.033031218 -0.039248694 -0.09206624 -0.029222948 -0.07935514 0.020489192 -0.0006716618
0.0072435006 -0.052237928 0.04016597 -0.05356223 0.00781868 0.094945945 -0.06281525 -0.07700151
-0.036028355 0.06457827 -0.07639651 -0.040122792 0.043147575 -0.054307055 -0.08268396 -0.0006168689
0.051337384 -0.06065097 -0.013245037 -0.033335086 -0.005660765 0.08604557 0.005795314 -0.03084384
-0.07832741 -0.044519313 0.030520642 0.07706826 -0.051385585 0.010443727 0.057576638 0.031159105
-0.030140707 -0.019171681 -0.06770135 0.08857968 0.071355775 -0.005550536 0.011247001 -0.011591674
0.02117455 0.021542706 0.059062127 0.061054118 -0.011966791 -0.08897931 -0.0049233637 0.07752009
-0.048689097 0.05435577 -0.07383512 -0.03628833 -0.024600545 0.022106899 0.080778085 -0.04409919
-0.087411635 0.048181605 0.041854393 0.08321724 -0.036996577 0.078846395 0.043083537 0.034699384
-0.06565647 -0.058631696 -0.050313074 -0.019963041 -0.07272895 0.0816814 -0.023872847 -0.05800288
-0.063488305 -0.08390831 0.027432613 -0.08041684 0.04862226 -0.0141175715 -0.037123494 -0.0474168
-0.07954059 0.0059850533 -0.01830072 0.01070085 -0.06593952 0.08279949 0.073210575 -0.101516396
0.024413852 0.05915421 0.009413932 -2.2709455e-05 -0.009762795 0.0025239394 0.05113959 0.032711092
0.057640072 -0.14289655 0.028207103 0.051634945 -0.021925768 -0.015371298 0.07902385 -0.0919786
-0.09642582 -0.020610884 -0.07233742 -0.007090963 -0.11057812 -0.09063515 -0.08380569 0.0029711174
0.09592128 -0.038214255 -0.0680071 0.09137664 -0.01375742 0.06482848 -0.10907141 -0.023858136
0.069527425 0.13522738 0.14477912 0.03615097 0.055856775 0.07519986 -0.020231865 0.043607827
-0.0019519676 0.08729384 -0.064896114 -0.0034313658 0.09237209 -0.10908927 0.0092673935 0.030264072
-0.07927491 0.028290138 0.03527681 -0.018199006 -0.030825244 -0.005063717 0.076511435 -0.018060505
0.012970382 -0.05903815 -0.06557852 -0.0052681733 -0.1037104 0.11707884 -0.042502206 0.08618819
-0.04896035 -0.08592048 -0.0079225665 -0.054647025 0.092209525 -0.029766865 -0.14882888 -0.10343799
-0.07339357 -0.11805992 -0.026981631 -0.06294456 0.09694093 -0.042865694 0.09847787 0.049584694
-0.029486403 0.09815246 -0.015044787 -0.009401548 0.060700867 0.046489347 -0.07104659 -0.07313477
-0.04446896 -0.093227394 -0.059804022 0.13254894 -0.020174392 -0.091335736 0.03194468 -0.09486159
0.012198578 -0.012502178 -0.13695349 -0.085917786 0.06550622 -0.09183073 0.0060223346 -0.0446678
0.0007747904 -0.13588852 -0.009065222 0.0833595 -0.02180832 -0.07956714 0.04948265 0.010865429
0.038896833 -0.090249054 0.025765836 -0.028237022 0.028758314 -0.042865396 -0.0035319228 -0.036854755

bias_ih_l0 f4 [512]
00000000: 70ef cd3d b22f 30be 58d5 b4bd 0f89 d1bb
00000010: 8c04 3dbe ed90 9f3c 6487 26bd 2607 b03d
00000020: 031e 90bc 33c3 cdbd 64aa 44bc d24f 703d
00000030: b5df 33bc 1ba4 d83c 12b0 1f3d 5c5e 3b3d
00000040: 052e d7bd 1591 c8bd 427f b3bd 08c5 81bd
00000050: 4966 a9bd 3b35 f73c c4cb b33c 6e22 dd3c
00000060: 5405 93bc efb6 cb3c 40cc 3dbd 6bd4 10bc
00000070: eb04 a2bd 2372 87bd 18e8 acbd f655 ffbc
00000080: e83a a83d 7a76 8fbd 5d8b 88bc fdfc 263d
00000090: c72a 9f3c 9b65 c03d 4c2e aa3d 8836 abbc
000000a0: aef0 703c d573 663d 9ec9 ccbd 673e 333d
000000b0: 199c b83c 75ec 963d d8f0 de3c 8832 6cbd
000000c0: b6a6 ac3d 7086 41bd 395d 7f3c 7c34 d5bc
000000d0: 91eb 4e3d 2d1b ef3b 7951 d5bc 01df 663c
000000e0: c036 9dbd 5669 883c fe51 f6bd 62de c93c
000000f0: 12a2 463c 225e 263d 2d53 d83b 3506 80bc
00000100: 6d50 cd3d 804d 173d 76d0 ebbd a83f 62bb
00000110: 8fbc 80bd 2151 f6bd 2b36 32bd a7cd 8b3c
00000120: 2270 0a3c 9c78 47bb 0044 2b3d f5eb bcbd
00000130: f915 96bd 640c 703d b559 c6bc 6c1d 1c3d
00000140: f826 a6bd e6c5 d5bd d23b b7bc 85b6 cebd
00000150: de36 c5bc 4a2b a4bd a13a 02bd d4c9 803d
00000160: 92e4 af3c 8328 c63c b264 533d db1f ddbd
00000170: 5b59 e7bd 6102 683d 534f f63d 714b a6bc
00000180: e5a3 32bd 2c44 373d e85a 14bc 3578 82bc
00000190: 5804 b13d 5fb4 7c3c 761a c9bd 5dc6 ae3d
000001a0: d430 b73d c3f2 aabc 552f 8a3c e68a e5bd
000001b0: 6d76 16be a2c5 57bd 7024 52bd 1703 a1bd
000001c0: 35a9 ac3d 443b 983d c302 acbc 0a76 ab3d
000001d0: 2803 5ebc 8256 a0ba df7a c7bd 57f9 553d
000001e0: 6fb5 023d 4398 243c 8adf 43bd f97b 9d3d
000001f0: 5c29 7ebc 1f4c c13a 2be1 e2bb 4f9f 19bd
00000200: 79ec 8a3d 576e 5bbc 5dc4 6fbd d7ec 2d3d
00000210: 1eeb f5bc 3122 01bd 61d1 7ebd d28e b53d
00000220: 5c92 efbb 1300 eebd 95a0 07be aa90 51bd
00000230: d968 92bd a452 473d 679a 9c3c d5af 3a3c
00000240: 3478 56bb 9e81 80bd 07cd e4bb 45f8 913c
00000250: 11f6 e8bd 6027 63bd 6b26 19bd 4a32 d83d
00000260: dbe0 be3d 74a7 2dba acbd f6bc 5174 d43d
00000270: 093d 273d 6149 4e3c 8982 803a 4ddc 863d
00000280: 6d52 9cbc ebfb f2bd c7f5 dd3b 0c5e 463d
00000290: 4463 be3d 58b5 863d 6da7 c93d 0e87 26bd
000002a0: e708 2a3c 076a 883d 39d7 7cbd de5d 3e3d
000002b0: 0772 b7bd ad24 aa3d b532 933c d883 98bd
000002c0: d4f5 523d f286 763d b54d a9bd e719 16bd
000002d0: c424 28bd b025 ed3c 6e65 ba3b 085a 383d
000002e0: 93a9 a1bd 2b45 40bd f7b0 ae3c 090e ef3c
000002f0: 7559 cebd 4efb 50bd 4be6 b3bd 5aaf 49bc
00000300: 3979 5dbd 533f 5d3d 448d bfbd 3cb9 acbc
00000310: 32ac 70bb 171f afbd fca4 96bd 6684 b6bc
00000320: 17e6 a33d 64c6 62bc 97b7 b53d 6263 a03c
00000330: 56eb 91bc d284 673d 0094 4cbd 5774 19bd
00000340: 0225 bebc c8e4 a5ba c99a 0c3e 6cc6 f9bc
00000350: c8d9 97b9 f4a1 8f3c 1083 8d3c c7f4 d13d
00000360: d892 edbc 8213 833d 4d6e f33c 63b2 62bd
00000370: 369e eebd f9bd 82bd 6612 f03d f67e b03d
00000380: 34d8 8cbc b810 54bd 7039 8e3d f524 4d3c
00000390: eb6b dc3d 3d4f 2cbd d1f0 733c 7a2d 403d
000003a0: b675 00bd fd48 f0bd 1f29 c5bd b47b 53bd
000003b0: cc1c aa3c 8a11 133b 1925 bbbd e102 783d
000003c0: 8d90 03be 448b e53d 4022 b63d c3aa 913c
000003d0: aeec 8ebc 42bd 4b3d 8dbf ffbc ae3a 65bd
000003e0: 75f2 ccbd d259 34bd 0637 0bbd 554c 413d
000003f0: 834e 95bd 0c1c 2dbd c50d 803d 9e3f adbd
0.10055435 -0.17205694 -0.088297546 -0.0063945125 -0.18458766 0.019478286 -0.040656462 0.085951135
-0.017592436 -0.10046997 -0.012003515 0.058669873 -0.010978629 0.02644544 0.038986273 0.045744285
-0.105068244 -0.09793297 -0.08764507 -0.06336409 -0.082714625 0.03017675 0.021947749 0.026993956
-0.017946877 0.024867503 -0.046337366 -0.008839707 -0.07911094 -0.06613567 -0.08442706 -0.031168919
0.082143605 -0.070050195 -0.016668016 0.040768612 0.019429578 0.0939438 0.08309612 -0.020900026
0.01470582 0.05626281 -0.09999393 0.043760683 0.02253537 0.07369319 0.027214453 -0.057665378
0.08430235 -0.04724735 0.015586191 -0.026026003 0.050517622 0.007296941 -0.026039826 0.014091254
-0.07676458 0.01665179 -0.120273575 0.024642173 0.0121236015 0.040617116 0.006601712 -0.01562796
0.100251056 0.036939144 -0.1151437 -0.0034522805 -0.06285965 -0.12027193 -0.04350869 0.017065836
0.008449586 -0.003043688 0.041812897 -0.09224693 -0.0732841 0.058605567 -0.024212698 0.038113996
-0.081129014 -0.10438137 -0.022367392 -0.100934066 -0.024074014 -0.08016069 -0.031794194 0.06288496
0.021471296 0.02418924 0.051609702 -0.107970916 -0.1129634 0.056642894 0.12026849 -0.020299645
-0.043613333 0.04474275 -0.009054877 -0.01592646 0.08643407 0.015423863 -0.098195 0.085339285
0.0894486 -0.020867711 0.016868273 -0.112081334 -0.14693613 -0.05267871 -0.05130428 -0.078619175
0.08430711 0.07433179 -0.02099741 0.083721235 -0.013550557 -0.0012232813 -0.09740233 0.052239742
0.03191131 0.010046068 -0.047820605 0.076896615 -0.0155127905 0.0014747417 -0.006923815 -0.037505444
0.06783385 -0.013393006 -0.058536876 0.042462196 -0.03001934 -0.031526748 -0.062211398 0.088651314
-0.0073111486 -0.11621108 -0.13244851 -0.051163353 -0.07148904 0.048662797 0.019116594 0.011394461
-0.0032725455 -0.062747225 -0.006982449 0.01781858 -0.113750584 -0.055457473 -0.037390154 0.10556467
0.093202315 -0.0006624379 -0.03011974 0.10373748 0.040829692 0.012590737 0.0009804528 0.06584988
-0.019082272 -0.11864456 0.0067736837 0.048429534 0.09296277 0.06577557 0.09846387 -0.040656142
0.010378099 0.06660848 -0.06172869 0.046476237 -0.08957296 0.083077766 0.017968515 -0.07447022
0.05150397 0.060187288 -0.082667746 -0.036645796 -0.041050687 0.028948635 0.005688361 0.045007735
-0.07893672 -0.046940964 0.021324618 0.029181497 -0.10075656 -0.051020913 -0.08784159 -0.0123098735
-0.054070685 0.05401547 -0.09353116 -0.02108442 -0.003672373 -0.08550852 -0.07355687 -0.02227993
0.080028705 -0.013841245 0.088729076 0.01957864 -0.017812412 0.05652315 -0.04994583 -0.037464466
-0.023211006 -0.0012656683 0.13730921 -0.030490123 -0.00028963224 0.01753328 0.01727441 0.10251766
-0.029000685 0.06400205 0.029715681 -0.055345904 -0.1165127 -0.06383891 0.11722259 0.08617966
-0.017192937 -0.051773757 0.06944549 0.012521018 0.10762771 -0.042067755 0.014888958 0.04691837
-0.031362258 -0.117326714 -0.09626984 -0.051631644 0.020765685 0.0022440874 -0.09137935 0.06054962
-0.1284811 0.112082034 0.088932514 0.01778162 -0.017446842 0.049741037 -0.031219268 -0.055964164
-0.100071825 -0.04403097 -0.03398802 0.047191937 -0.072903655 -0.042263076 0.06252626 -0.084594

bias_hh_l0 f4 [512]
00000000: 89ed 54bc c2f0 f8bd d175 47bd 485d 01be
00000010: 499b fbbd b662 e3bc a828 b43c cd62 e4bb
00000020: fba5 153d af3d f7bc 09c4 1ebe 0b41 7f3c
00000030: 3e50 d6bd df47 19b9 0ced c0bd 35ce 2dbb
00000040: 6c6b 83bd a990 553c f047 25bd c329 b13b
00000050: 91d7 69bd 248d 05bd 3af2 b63d e91a 9e3d
00000060: 5ec3 c93d 698a edbd 6fda 44bd dd0e 273d
00000070: aaf6 9fbd 18dd 413d e699 c1bc 2139 d83d
00000080: 23da 343d 0416 b7bd 35b2 a13d 43fb babc
00000090: e1ef 4ebc 5d0b ca3d 81ed dc3c 681e 4dbb
000000a0: f0e5 89bc d438 98bd 59c9 f4bd 122b 17bd
000000b0: 3075 13bb 7b40 8cbd 773c 5e3d eaff 1bbd
000000c0: 2db5 2ebd d9f3 e6bb ebdb 5ebd 7157 a6bc
000000d0: 56bb 063d ed15 59bc 1c9d 393d 912a ecbd
000000e0: c660 e8bd dcab 20bd 0eaa 26bd 7e60 56bc
000000f0: cf47 f1bd e9e4 ef3c 7cd6 9bbd 16e9 8e3d
00000100: 2b83 f93d 1046 233b 8091 4739 c027 98bd
00000110: 7c9a 91bd c6c8 bdbd d934 18bd 7789 d73c
00000120: 73aa c03d c17d 293d ba3d e93d 29e7 9abd
00000130: ad13 71bd 6657 e73c 5c59 48ba 1b45 043e
00000140: 8de2 d3bc 0462 a6bd 6e20 603d 53a8 e9bc
00000150: 04a9 793d 76b3 903d ea21 ab3c 5106 07bd
00000160: c5dd a83b 35dd 213d 32d2 a0bd 8cdb 5bbd
00000170: 6977 5dbd e8ab 933c 7a34 0b3e 65a6 043e
00000180: cb49 d3bd 89f3 843d 82f1 b63c 96b3 b2bd
00000190: 2acb 01bd de63 6b3d b58d a7bd ca1f 5d3d
000001a0: 54af a03d 5960 523c 4fd3 a13c 7b2f 9cbd
000001b0: 4957 58bd 0897 bcbc a5ca a4bd 9eba d5bd
000001c0: 48e1 9c3d 06a2 eebc d6db 883d b916 bb3d
000001d0: ab43 a0bc 603c 1d3c f677 30be 010c 67bd
000001e0: 6058 dc3c 30b9 d9bd c0dd acbd 7653 713d
000001f0: 3219 ccbd b3f9 633c ebaa cbbd 880b a5bd
00000200: b616 a8bd 8494 fdbd 87ee bfbd d4b5 84bd
00000210: f7a3 e4bc 92c2 ee3d 576d 3a3d 5dbd 883b
00000220: 91a1 2e3d 298d f93b 06e7 dfba d7a6 87bd
00000230: 349f b8bd 1faa f63d 4796 82bd c526 823d
00000240: 6d12 a8bd 3416 eebd c877 ba3b e401 9dbd
00000250: 534d 9bbd 7f6a c9bd 1e8f 0a3d 6b13 19bc
00000260: 44fe b5bb df25 beba 385f 5dbd 8e9b d03d
00000270: b690 833d 525b 183d 28b4 d03c 2698 263d
00000280: 1aef 5c3d 8360 d6bc 34e9 5fbd 876a f8bd
00000290: c23e fbbc d5ec 113d d950 c4bb fda2 433d
000002a0: 9367 6b3d a91d 1f3d c019 de3c 7ee4 96bc
000002b0: 5b7f df3b 44ab 173c 41f1 303d 7090 0bbe
000002c0: c46b 92bc fd04 af3d 754e 313c 48cd d1bd
000002d0: 7937 b03c 08f2 bb3d 46a5 c03d b91a 353d
000002e0: ebba fc3b 4d7e 3cbd 0289 f3bd fa14 b0bc
000002f0: 9eb4 bfbd 92f2 30bd 5904 9abd b22a e23c
00000300: ca62 f93c bd44 963d 4a6f 5f3d d0fc f5ba
00000310: b997 b93c 3594 f53b c2f6 ecbc 3dfd a03d
00000320: f2ea 62bc 52d5 e6ba 3742 32bc 98f7 63bd
00000330: d2cd b9bc 460a 42bd ac28 c4bc f757 5a3b
00000340: fe21 893c ed77 4d3d 60eb 4cbc 9756 6b3d
00000350: eb2a 653d 6103 d5bd f7b0 a63d 28ad b33c
00000360: d9f3 6e3c 2159 b0bc 03d5 073d 3926 e9bb
00000370: 66c7 aebc fe00 713d d8e0 973d 4a0e 9c3d
00000380: 952e c1bc 20e9 15bc b324 053c b3ed b3bd
00000390: 44b2 ec3d 8a36 bcbd 1262 c0bd 33f0 03bd
000003a0: 5d13 fa3d 9783 afbc 6439 fe3b 6ccb 743d
000003b0: ea0a 0fbd 9ba5 d6bb 9e03 0c3d 14f4 20bd
000003c0: 7211 f0bd 9cbe f93c 665d 983d f802 893d
000003d0: ed5e c4bd c2b1 973c 4c51 91bd db05 0c3d
000003e0: cc22 d1bc 9b23 613b a0fd 8b3b c79b 3d3d
000003f0: a9cd ddbd d86c 3dbc 5750 1c3c 1f39 d8bc
-0.012996086 -0.12155296 -0.048696343 -0.1263324 -0.12285478 -0.02775703 0.021992043 -0.006969786
0.036535244 -0.03018078 -0.15504469 0.015579472 -0.10464524 -0.00014617991 -0.09420213 -0.0026520614
-0.064169735 0.013034978 -0.040351808 0.0054065897 -0.057090346 -0.032605305 0.0893292 0.077199765
0.098517165 -0.11598665 -0.048059877 0.04078566 -0.07810719 0.047329992 -0.023632955 0.105577715
0.044153344 -0.08939746 0.078953184 -0.022824889 -0.012630434 0.098654486 0.02696872 -0.003129864
-0.016833276 -0.07432714 -0.119524665 -0.03690631 -0.002250027 -0.06848236 0.054256883 -0.038085856
-0.04265325 -0.007048112 -0.05440895 -0.020305367 0.0328935 -0.013249856 0.045315847 -0.115315564
-0.11346583 -0.039226398 -0.04068952 -0.013084529 -0.117812745 0.029283958 -0.07609269 0.06978051
0.121832214 0.0024913587 0.00019032322 -0.07429457 -0.07109544 -0.0926681 -0.037159774 0.026310666
0.094075106 0.041379694 0.113887265 -0.075636216 -0.058856655 0.028239917 -0.000764271 0.12916987
-0.025864864 -0.08124164 0.054718427 -0.028522646 0.0609522 0.070654795 0.020890195 -0.03296501
0.00515339 0.0395176 -0.078525916 -0.053676173 -0.054068957 0.018026307 0.13594237 0.129541
-0.10316809 0.06491763 0.022331957 -0.087256595 -0.031687893 0.057468288 -0.08181325 0.053985395
0.07845941 0.012840354 0.01975408 -0.07626244 -0.052817617 -0.023021236 -0.08046464 -0.10435985
0.076601565 -0.029129993 0.066825554 0.091351934 -0.019563517 0.009596914 -0.17233261 -0.056407932
0.02689761 -0.10631025 -0.08440733 0.058917485 -0.09965743 0.013914513 -0.099447094 -0.0805884
-0.08207457 -0.12381843 -0.09371667 -0.064799935 -0.027910216 0.11658205 0.04551443 0.0041729645
0.04263455 0.0076157046 -0.00170824 -0.06623619 -0.090147406 0.12044167 -0.063763194 0.06355051
-0.082066394 -0.11625329 0.0056905486 -0.07666376 -0.07583108 -0.09834766 0.033827893 -0.0093430085
-0.0055539925 -0.0014507136 -0.054045886 0.1018592 0.06424086 0.037196465 0.02547653 0.040672444
0.053938963 -0.026169067 -0.05466576 -0.121296935 -0.030669574 0.03562625 -0.005991083 0.04776286
0.057471823 0.038846646 0.027111888 -0.0184195 0.006820602 0.0092571415 0.043198828 -0.13629317
-0.017873652 0.08545873 0.010821928 -0.102442324 0.021510826 0.09177023 0.094065234 0.044214938
0.007712712 -0.046018887 -0.118913665 -0.021494377 -0.09360622 -0.043200083 -0.075203605 0.02760825
0.030442614 0.073373295 0.054549493 -0.0018767361 0.022655355 0.0074944743 -0.028926257 0.07860801
-0.013849961 -0.0017611182 -0.010880045 -0.055656046 -0.02268115 -0.04737308 -0.023945175 0.0033316591
0.016739842 0.0501632 -0.01250729 0.057455625 0.055949133 -0.10401035 0.08139222 0.021933153
0.014584505 -0.021526875 0.03316213 -0.007115152 -0.021335315 0.058838837 0.074159324 0.07619913
-0.023581782 -0.00914982 0.008126426 -0.08785572 0.11557439 -0.0919009 -0.093937054 -0.032211494
0.122107245 -0.021425052 0.0077583063 0.05976431 -0.034922518 -0.0065505034 0.034183137 -0.03929527
-0.117220774 0.030486397 0.07439689 0.06690019 -0.09588418 0.018517379 -0.07095584 0.03418527
-0.025529288 0.0034353498 0.004272178 0.04629114 -0.10830242 -0.011561595 0.009540639 -0.026394425

weight f4 [64, 128]
00000000: efe5 0cbd 9d7a 803d b707 173d 0dd5 c3bc
00000010: de6b 79bd 15a4 47bd 801f 9abc cdd3 003d
00000020: 38e2 4c3c 447a 683d d594 7abc 6083 103d
00000030: c03b 8a3d 6496 47bd 9b43 bdbd 7288 79bd
00000040: 9298 ad3d ebc5 60bd 65a1 a3bd eab2 a83d
00000050: 219c 213d df58 a3bc b99f 183d ac12 72bd
00000060: 4283 493d 2ad2 7c3d bc04 903d 215f c13c
00000070: 5209 763b 73c9 b93c c76f 1c3c 72db 503c
00000080: 3dce 9dbd bb5e 6ebd 6b6c 303d 7045 7cbd
00000090: a63d 583d 42bc 74bd dd2e 2f3d c30b a93d
000000a0: ae96 86bd 8f6e ac3d 72b9 c93b 1c55 adbd
000000b0: 6fde 5a3d e209 8dbc 66dc 453c 354b bd3d
000000c0: ad25 17bd cb1e 8fbd c5be a6bc 4172 873d
000000d0: 8b88 92bb 7ed9 a63a fb85 7ebd 5904 3f3d
000000e0: 5e92 07bd 8804 97bd 409e 3dbd 480f cfbc
000000f0: b086 aebd e9fd 0dbd cddb 8d3c 3368 b73d
00000100: 4dee 3539 0cd5 82bd bde5 463c aaaa 8fbd
00000110: 5f64 413d 5a7b 873d f709 00bd 7c88 fe3c
00000120: d10a 3abd 89bd 4abb 47de 4ebc 8e4c c139
00000130: 5ec5 a63d 5226 a1bd 34be 9bbd 57d8 943c
00000140: 36d1 19bd f8b3 c53c bcba 38bd df74 0fbd
00000150: da19 5c3d 6407 0b3d 504b 713d b0d6 a2bd
00000160: 90de 4c3d 94c6 65bc c52a 4abd 80f5 92bd
00000170: 61b1 803d 6c62 b0bd 65ee 9a3d 930f c83c
00000180: 4076 c83c e2a5 3fbd 377e 04bb 42c8 7dba
00000190: 5df6 b8bd 3b20 4abd 654e 6bbd f2a1 21bc
000001a0: e65d 243d ff9f 4cbd c1c7 a53d 832d 043d
000001b0: 5d54 683d 2228 743c 1fce b13d b0b7 4b3c
000001c0: 8a98 96bd 1d74 38bb 8c51 59bc b808 ff3b
000001d0: 83cf 8bbd 2d37 6e3d fdf1 023d d3c3 fabc
000001e0: 3d5e 23bd ed55 193c ed88 853d 4efa ccbc
000001f0: 22a7 72bd 992f 00bd b0f0 f8bc 164f b3bd
00000200: e7f4 8fbd d3fa 95bb 6780 943d 7ff8 99bd
00000210: 6e35 76bc c897 c4bc 5e66 0cbc 86b6 3a3b
00000220: 23c6 9c3d f8b8 863d 5f08 9a3d 14b2 2b3d
00000230: 8fad 85bd b9a3 fdbc 2db4 b63d d686 333d
00000240: df56 9abd 77b3 913d beb1 cc3b 7124 0ebd
00000250: 6ac9 9bbd 8d28 fc3c b4b5 eabc 742f a53d
00000260: 0645 d6bc 2e45 68bd 8b5e e7bc 660b 923d
00000270: d331 37bd 2d00 59bd 0d36 43bd 3072 4bbc
00000280: 9915 05bd 1291 cf3d a2d0 213d b59d 01bd
00000290: 4df2 9dbd 426f 793d dbf7 603c c4ca debd
000002a0: 6b71 b83c c4c5 0e3d 747a 98bd f11d a13d
000002b0: 7e43 46bd 06a8 013d 55af 1f3d 7220 ebba
000002c0: 9d97 f3bc 1ba8 94bd eac8 37bd eb5f e03c
000002d0: 1952 1a3c 1d88 92bd 0cab 1cbd 1e45 30bc
000002e0: 386c 4abd 5b5d 623d f5ed f53c 6865 0d3d
000002f0: 6bdb aebc 699c a43a edd5 3b3b 1585 363c
00000300: 3074 c2bc 834f 103d 8cec 56bd 6abe 433b
00000310: 0447 e5bc ad00 d33c 624e 8b3d 3251 0d3d
00000320: e334 e53c 6f33 eebc 5e2e d3bd 141d b3bc
00000330: 65d0 72bc 188b 9dbd f206 89bd abdb 043e
00000340: 2edc 193d 06d6 58bc 9928 f2bb 19de a03d
00000350: fe6f 2bbd ab13 fdbc cb93 223d e473 d6bc
00000360: 6349 78bd 82f1 ac3d 8979 523a 9ac1 abbc
00000370: 1746 793d 88c6 0dbb c400 bdbd afcc 133d
00000380: 9c87 b2bd f73c 56bd 1172 adbd 4cad 213d
00000390: 8871 1bbd 4fb8 203d 8644 a03d 0d8f 09be
000003a0: 37b0 50bd 59ae a43d ec12 a0bd 2d92 5ebd
000003b0: b870 f938 c873 ac3c 383a ab3d 1266 b33d
000003c0: ab83 1b3d ef14 f03b 1720 6dbd c787 86bd
000003d0: d584 1a3e 5058 823d 9387 2b3d e54a 3f3d
000003e0: 2b40 653c ae54 193d 6524 453d 9168 863d
000003f0: feb7 53bd 2b67 21bd 1752 11bd 68f2 40bd
-0.03439897 0.062733866 0.03687259 -0.023905301 -0.060893886 -0.048740465 -0.018813848 0.03145199
0.012505107 0.056757227 -0.015294273 0.03528154 0.06749678 -0.048727408 -0.0924141 -0.06092114
0.08476366 -0.05487625 -0.07989768 0.0823725 0.039455537 -0.019939838 0.0372617 -0.05909984
0.049197443 0.061723866 0.07032153 0.023604931 0.0037542176 0.022679066 0.009548134 0.012747632
-0.077053525 -0.05819581 0.043072145 -0.06158966 0.052793168 -0.05974985 0.0427693 0.082541965
-0.065717086 0.08419525 0.00615614 -0.08463499 0.053434785 -0.017216627 0.012076473 0.0924286
-0.036901165 -0.06988295 -0.020354638 0.06613589 -0.0044718436 0.0012729613 -0.062139492 0.046635006
-0.03309857 -0.07373911 -0.046293497 -0.025275841 -0.08521783 -0.034665976 0.017316723 0.08955421
0.00017350279 -0.06388292 0.012139735 -0.070149735 0.047214862 0.06615324 -0.031259503 0.03107094
-0.04542047 -0.0030935726 -0.012626237 0.00036868866 0.081431136 -0.07868637 -0.07604638 0.018169565
-0.037553035 0.024133667 -0.04509996 -0.035023566 0.05373559 0.033942595 0.058909714 -0.07951105
0.05001694 -0.0140243955 -0.049357194 -0.07175732 0.06283832 -0.086125225 0.075650014 0.024421489
0.024470448 -0.046789058 -0.0020216831 -0.0009681025 -0.09031365 -0.049347144 -0.05744781 -0.009865271
0.04012861 -0.04995727 0.08094741 0.032269966 0.05672108 0.0149021465 0.086818926 0.012433931
-0.07353313 -0.002814538 -0.013264071 0.007783022 -0.06826689 0.05815809 0.03196906 -0.030610954
-0.039884795 0.009358865 0.06520257 -0.025021698 -0.05924142 -0.031295393 -0.030388206 -0.08755319
-0.07029133 -0.0045770197 0.07251053 -0.075181 -0.015027387 -0.023998156 -0.008569328 0.002849014
0.07654979 0.06578249 0.07521128 0.041917875 -0.06527244 -0.030961858 0.089210846 0.04382976
-0.075361006 0.07114308 0.0062467745 -0.034702722 -0.07606776 0.030781055 -0.028651096 0.080656916
-0.02615596 -0.0567066 -0.028243324 0.0713108 -0.04472525 -0.052978683 -0.04765897 -0.012417361
-0.0324913 0.10135092 0.03950561 -0.03164454 -0.07712231 0.06089712 0.013730968 -0.10878518
0.02251502 0.034856573 -0.07445231 0.07867039 -0.04840421 0.03165438 0.03898557 -0.0017938747
-0.02973538 -0.07258626 -0.04486934 0.027389487 0.009418988 -0.07154868 -0.03824906 -0.010758666
-0.04941961 0.055264812 0.030020693 0.034520537 -0.021344861 0.0012558821 0.0028661445 0.011140128
-0.023737043 0.03523208 -0.052471682 0.0029868134 -0.027987964 0.025757158 0.0680206 0.034501262
0.02797932 -0.02907726 -0.10311578 -0.021864451 -0.014820193 -0.07692546 -0.06690778 0.12974422
0.037563495 -0.013234621 -0.0073900935 0.07854862 -0.04185485 -0.030893167 0.039691728 -0.026178308
-0.060616862 0.084445015 0.00080289744 -0.02096634 0.06085786 -0.0021633226 -0.09228662 0.036083873
-0.08717272 -0.052304234 -0.08469022 0.03947191 -0.03795007 0.03923827 0.0782557 -0.13433476
-0.0509493 0.08041067 -0.07816109 -0.054338623 0.00011894241 0.021051303 0.08360714 0.08759703
0.037967365 0.007326714 -0.05789193 -0.06568866 0.15089734 0.063645005 0.04187734 0.046702284
0.01399235 0.037434272 0.04813041 0.06562913 -0.05168914 -0.03940503 -0.035478678 -0.047106177

bias f4 [64]
00000000: ea3f 6dbc e391 da3c e2d5 913d a408 38bd
00000010: ce32 fcbc d105 2d3d 482a 92bd 366b 823d
00000020: 89aa 593d 2b14 d2bc 3e9f 823d fd4d 64bd
00000030: e976 1bbd b943 31bd cc45 cdbc ccee 57bd
00000040: 2932 95bd 92a9 6fbd 2709 963d 7bbb 583d
00000050: eb05 e63c ddd5 d3bc d663 3a3d c6e6 48bd
00000060: 92f0 493d 58b9 b1bc e5e0 3cbb 63bb 94bd
00000070: 2b3d 573d e160 4fbc 6b8f 833d d46d 31bd
00000080: 411e 833d 9418 013d 6ca6 7cbb 634e 573c
00000090: 5e28 a23d 5528 483d 50f3 14bc ad20 81bd
000000a0: 20ba 4cbc ae26 0abd 814e 933b de1c 27bd
000000b0: aa00 913d 5049 8ebd 20bc 663d e30b 0d3d
000000c0: 1524 3c3d b43d 393d c591 0b3c cf4a 0fbd
000000d0: ffa2 4e3c db25 9bbd 08b3 a2bd 3e5c 5c3c
000000e0: 2ae5 80bd ad3c 39bd 76b4 3f3c 3d10 383d
000000f0: 5ced e53c a86a 48bc 5a11 75ba 8f85 433b
-0.01448057 0.026680892 0.07120873 -0.044930115 -0.030785944 0.042241875 -0.07136971 0.06368105
0.05314115 -0.025644382 0.06378029 -0.055738438 -0.0379552 -0.043277476 -0.025057696 -0.05271797
-0.07284958 -0.058511324 0.073259644 0.05291317 0.028078994 -0.025858814 0.045505367 -0.049048208
0.04930169 -0.021694824 -0.002882057 -0.07262304 0.05254857 -0.012657375 0.06423839 -0.04331763
0.06402255 0.03151758 -0.0038551344 0.013141247 0.07917856 0.04886659 -0.009091213 -0.063050605
-0.0124955475 -0.033728294 0.0044954424 -0.040799014 0.07080205 -0.06947577 0.056331754 0.034435164
0.045932848 0.04522486 0.008518641 -0.034983452 0.0126121035 -0.0757558 -0.07944304 0.013449727
-0.062937096 -0.04522388 0.01170074 0.04493736 0.028067283 -0.01223246 -0.0009348594 0.0029834246

weight f4 [64, 64]
00000000: e88a 4cbd aa54 5a3c 9489 48bd 54fb 2ec0
00000010: eeac 4abf 9d2c cebd 87f9 8bbe 68eb c8be
00000020: 5c3c 003e c561 4fc0 f346 f33d ba66 6bc0
00000030: 384a 27bf d437 c8bd e413 463d 894f c1be
00000040: e560 853e cd02 f7bc d818 90be 5fa6 1bbf
00000050: 61a6 033d 8513 8d3c f48d 973e 2839 25c0
00000060: f79a 86c0 8049 db3d cfc9 813d c45a e9be
00000070: 266c bdbe ac00 213e ee77 e1bc fd0a 1cbd
00000080: fe60 2e3c 4010 8b3d 413f 9abd 6dbd 04bd
00000090: a583 9a3e 1b58 afbd f1e0 a8be b4e6 173d
000000a0: 0d51 6ebe 6161 ae3d b499 a23e 3387 e5bd
000000b0: 0d46 003f 9015 ddbd e300 9b3d bfa0 45bc
000000c0: b84a 90bf b3f8 9bc0 a312 df3b 59fc 2b3d
000000d0: 7750 bebd c3e8 86be 429b d93d 0990 703d
000000e0: 803b 76bd 28c2 3440 59f6 a4bd 129b ca3d
000000f0: c7bc 8a3d f5a2 d33d 76c3 abbd 5ebe 1dc0
00000100: 7db3 aabd 61cc 313d dade b53d 2770 ce3c
00000110: 1ef4 b4bc d7c0 ef3d 645c bbbd e0f1 82bc
00000120: 8356 f33c 31f0 3abd 94a8 093c decf 063e
00000130: ca88 5cbd 0d03 db3b 3481 bdbc 9f2e bb3d
00000140: f927 583d 98a4 00be 57e4 9cbd cb87 da3d
00000150: a152 92bd a0e7 46bc bbf2 9d3d 6041 ff3d
00000160: a89a a83d a806 5a3d 66d2 d9bc 847a a2bc
00000170: 3408 983d b69e 863d 8f24 c93d b456 f1bd
00000180: 39ba c0bd 806e 373d cf0b 893d 6fb4 8d3c
00000190: 3c94 c33d 25be fbbd 33dd 013e 8b4b 47bd
000001a0: cdf2 9cbd 1434 833d f922 c93d d956 a0bd
000001b0: 6e37 e3bd b2ed 913d 8a61 083c 9951 b3bd
000001c0: f636 cf3d f297 ae3b 3e74 d73d 37b0 ec3d
000001d0: 2ddd 2fbd 5ce8 a6bd 8ad4 a1bd 561d dcbd
000001e0: 1ac0 8fbd 4a7b 1dbd 59c8 b2bc eb43 723d
000001f0: 2850 e5bc bace 4f3c 25ce 06bd d7ca f2bb
00000200: 2fae 32bc ecf7 56bf 8a39 adbd b1b4 b33d
00000210: 22fc 0ebd e212 49bd b726 23bd 95f5 ccba
00000220: 3f9f dcc0 faa6 bb3e a39f 5abd 917d ae3d
00000230: 43ea 98bd ff9f 4abc d6d1 0a3e 0b78 343d
00000240: 366c 21bd 6306 b6bd 77dd ecbd f92c d43d
00000250: b6cf 98be f781 efbd a1dd b83b e998 e73d
00000260: 5e36 c43d e87d 913d 9c8d b2bc 6985 b2bc
00000270: 9eef 84bc 90ab 263e 9727 94bd f751 8d3d
00000280: 5c4e e13d 2ebe aa3d c748 08bd ba16 f8bf
00000290: ec9d dd3c ff5a c3bf 29af 143e 66ee 7dba
000002a0: fb4a 20be 4fc6 71bc 6849 46be 1295 58be
000002b0: 05bc 41bd 38cb 7e3d 97ad 903d aa2d 053d
000002c0: aebc 07be 3547 c63d ed54 983d 9724 833c
000002d0: 0ee0 99ba 7149 b53a b479 dbbd d270 a33d
000002e0: 00be ebb9 9c86 35c0 4bcb c7bc d587 c4bd
000002f0: 0d39 96b9 2b0d c93c 78e5 a1bd 15da 8c3e
00000300: 61ab e03b 7e96 ad3d 60f1 363d 5656 253c
00000310: 595f 093d bd92 5dbe 4d1c 533e 240c a73c
00000320: bbe7 c63d 81a0 25bd a3a6 fb3d 74e1 1d3d
00000330: f318 ae3d fccd d83d fe06 03be 68b5 0f3d
00000340: 8237 13bf 0dd8 803e 4113 cc3b 78a9 033c
00000350: 9dd8 573d a925 063e 825c 4dc0 7954 193d
00000360: 0a30 923d ce82 bcbc b9fc 0fbd cd0b c83d
00000370: 87d3 033d 0529 a7bf bc1f 3538 2146 babd
00000380: a5f7 84c0 43c5 a83d 6a41 03bd f274 393e
00000390: e010 5e3e f97a 92be a7b6 c6be 5423 87bd
000003a0: 84da 843e bac1 58bd 1293 bdbf ad8e 073e
000003b0: 61d7 74be 4ab3 ec3d fb70 87bd dc81 eebd
000003c0: 2edd 563d 88e4 a63c a692 b2bd 0e0e 213d
000003d0: f4b4 e3bd 1b4d 003e 2dad 933d c9d1 993d
000003e0: b883 533d a8a9 043f aad5 f23d 0d05 863d
000003f0: da6e babc f5a8 27bd 97df 503d 833c cd3c
-0.04993716 0.01332585 -0.04895933 -2.7340899 -0.7917012 -0.10067103 -0.27338812 -0.392421
0.12523025 -3.2403424 0.11878767 -3.678145 -0.65347624 -0.09776273 0.048358813 -0.37755993
0.26050487 -0.030152703 -0.28143954 -0.6080074 0.032141093 0.017221222 0.2960049 -2.5816135
-4.2064166 0.107073784 0.0633732 -0.4557706 -0.36996573 0.15722913 -0.027523007 -0.038096417
0.010643242 0.06790209 -0.07531596 -0.032407213 0.30178562 -0.08561727 -0.32984117 0.03708525
-0.23273106 0.08514667 0.3175789 -0.11207428 0.5010689 -0.10795128 0.075685285 -0.012062251
-1.1272802 -4.874109 0.0068076416 0.041988704 -0.09292691 -0.26349458 0.10625316 0.058731113
-0.060115337 2.8243504 -0.080547996 0.098928586 0.06774288 0.10333816 -0.083868906 -2.464744
-0.08335016 0.0434078 0.08880396 0.025199963 -0.02208906 0.11706703 -0.091484815 -0.015984476
0.029704338 -0.04563922 0.008402009 0.13165233 -0.05384139 0.0066837133 -0.023132898 0.09139752
0.052772496 -0.12562788 -0.0766074 0.10670432 -0.071446665 -0.012140185 0.07712313 0.12463641
0.08232623 0.053229004 -0.026589584 -0.01983381 0.074234396 0.065732405 0.09821426 -0.117841154
-0.09410519 0.044783115 0.066917054 0.017297952 0.09549758 -0.122921266 0.12682037 -0.048656028
-0.07663498 0.064064175 0.09821124 -0.07829065 -0.11094557 0.07125415 0.008324036 -0.08755798
0.10117905 0.005328172 0.10520218 0.11557048 -0.04293554 -0.08149788 -0.07901867 -0.10747783
-0.07019062 -0.038447656 -0.021824049 0.059146803 -0.027992323 0.012683565 -0.03291144 -0.0074094343
-0.010905786 -0.8397205 -0.0845824 0.087746985 -0.03490842 -0.049090274 -0.039831843 -0.0015637154
-6.894439 0.3665083 -0.053374898 0.08520044 -0.07466557 -0.012367248 0.13556609 0.044059794
-0.03940984 -0.08887937 -0.115656786 0.1036014 -0.2984597 -0.11694711 0.0056416546 0.11308462
0.09580682 0.07104093 -0.02179604 -0.02179213 -0.01622754 0.16276383 -0.07234114 0.06900399
0.11001274 0.08337055 -0.03327253 -1.9381936 0.027052842 -1.5262145 0.14519943 -0.0009686708
-0.15653603 -0.014756753 -0.1936394 -0.21150616 -0.04729845 0.062205523 0.0706436 0.03251425
-0.1325557 0.096815504 0.07438073 0.016008658 -0.0011739747 0.0013831091 -0.107165724 0.07980503
-0.00044964254 -2.836341 -0.02438893 -0.095962204 -0.00028652736 0.024542412 -0.07905096 0.27510133
0.0068563675 0.0847597 0.044663787 0.010091385 0.033538196 -0.21638007 0.20616265 0.020391531
0.09712168 -0.04043627 0.12287643 0.038545087 0.085008524 0.105861634 -0.12795636 0.03508511
-0.57506573 0.25164834 0.006227881 0.00803601 0.052696813 0.13100304 -3.2087712 0.037434075
0.07138069 -0.023011591 -0.035153124 0.09767876 0.03218415 -1.3059393 4.3183318e-05 -0.09095407
-4.15523 0.0824075 -0.032044806 0.18111017 0.21686125 -0.28609446 -0.38811228 -0.06598535
0.25947964 -0.052919127 -1.4810507 0.1323802 -0.23910286 0.11557634 -0.06613346 -0.116458625
0.052457027 0.020372644 -0.08719377 0.039320044 -0.111184984 0.12529413 0.07210765 0.075107165
0.05163929 0.51821375 0.118571594 0.06543932 -0.022757936 -0.040932614 0.050994482 0.025053268
