nba/src/artifacts/nba_lstm_predictor_v2/lstm_model_branched.pth (torch, 480532 bytes, 48 tensors)

weight f4 [2500, 32]
00000000: 954a 7c3c 4491 9abe f1b9 c93f 0bc2 19bf
00000010: 2371 8fbf c5a6 93bf 240c c2bf 0e62 fc3e
00000020: cf3b 7f3f ede0 a83f 9e11 5b3d 7a5d 0a40
00000030: 9f8f 1e3f f49d d33e fda1 2040 423d 0ac0
00000040: 5648 5bbf 23d9 50bf 7d9e e53f 2d6e a03f
00000050: ca11 4fbd 72e3 a4bf 1fb3 ab3f 3bc5 79bf
00000060: f504 58bf 8eaa d83e af3a bc3e b01a 963e
00000070: 5580 f8bd 1e0f 93bf eb4e a5be b86c 6a3f
00000080: 7544 ba3d 4666 13bf 0316 e3bf bba5 16c0
00000090: 4ce5 c6bd 6b26 4dbe addb e73d e97a 10bf
000000a0: 003f 943f 7dc7 a5bf 6d2f 2fbe be1f e3bf
000000b0: 8aeb 173f 10ba 89bf 3664 a7bf c8da 02bf
000000c0: 6925 b53e 4fcd 48bf 2c22 bb3f d522 c8be
000000d0: bfbb 0240 f859 0940 50d0 f73e a438 c3bf
000000e0: d2c8 cb3e e17b c03f 565e a33e 54d2 263f
000000f0: 5af6 9f3f 523e a73f 68ff febe 1b97 143f
00000100: 172a 0840 bc24 85be 7edb afbf a253 973e
00000110: 6029 0bbf 74ce e63d 7f23 b53f d855 703e
00000120: 0038 1bc0 44dd a73f 96ff 6bbe b3fa ca3e
00000130: 6549 c83f 0998 31bf afa2 84be b740 1f3f
00000140: f860 8c3f e24d 96bf e6dd 28bf 2ec9 3f3e
00000150: b477 543e 13f3 0b3f d496 fb3f 33f6 4f40
00000160: 51fa 77bf 83c7 3fbf b5b9 da3d 5fe5 83be
00000170: 8159 64bf 28ef 3c3e 5d1f cd3e 27bc 4dbf
00000180: 56ff 9dbf beb3 633e f833 f9bf 948b 723f
00000190: 1356 603f 6578 02bd b3f1 553f 43cb 4abe
000001a0: 4311 903f d569 c4bf adc4 cbbf ed84 8b3e
000001b0: dc89 f73f ecc8 c23f 94dd aa3f 16b0 cbbe
000001c0: bfb3 bebe b9f8 5cbd b851 703f 51bd d93e
000001d0: 580b 2bbf 9cef 6ebf 1215 553f e043 ae3f
000001e0: 58c2 05bf 6fa8 f23f 04df 063f 2c11 8dbf
000001f0: 5292 45bf f7e6 b13e cfb8 133f a5d9 e2bf
00000200: ac4c 40bf 1c1c 14c0 1e94 e63e 3085 333f
00000210: f250 7bbf f895 ad3c 25c9 5bbe f86d 323f
00000220: 2987 5abf 7154 603f 4255 35bf 5219 40be
00000230: c9c3 8abe 09b1 2f3f 572a e93d c3b2 55be
00000240: b898 ce3c fd06 443f 420b 2abf 1baf 0d3f
00000250: cffa 8e3d 4b5b 14bf 75c4 bb3f f65a 00c0
00000260: 2471 4cbe 0e9c 5fbe 5310 9c3e 6fe9 803f
00000270: 1163 053e 77a6 b5bf 3732 8e3e 3f86 183f
00000280: deca 893e 0047 403f 76bc 823e df1d 93be
00000290: 3561 0b3f 83d9 06bf fb0b a73e b276 14bf
000002a0: d534 5ebf d04e 8ebe d26c d7bd 0fd7 413f
000002b0: ce2c c83f 13ce 55bf 0d1a c93c 9ef1 173f
000002c0: 334f 143f 4e7e 93bd 9871 ed3f f515 7f3e
000002d0: ed07 8e3f e98b 09bf a9b2 05c0 8e83 0a3f
000002e0: e985 a8bf f9ab f33f e0b1 02be a500 553f
000002f0: 661f cfbf be53 84bf 80e0 aebf 1398 e6bf
00000300: 05dc 423e 5e71 28bf 0259 a73e 16ed f83e
00000310: 5527 0a3e dac8 68be bc9f 533e 4181 1d40
00000320: 207d 71bf 1e95 173f 7acb e93e cbba 3b3f
00000330: fa15 933e 7d1e 473f 6f6e 3bbe c885 01c0
00000340: 59af c7bf 8506 d53d 52b5 5c3e 8a69 46bf
00000350: 0238 4fbe bbbb ae3f 5c34 773f c3b4 123f
00000360: 26df aebe 874a f9bd 3292 083f 3c47 91bf
00000370: 227f e43d fd8b 8dbf 6864 9b3e 76b2 fdbf
00000380: 6038 70bf 1be7 48bf b00e 94bf 9434 ee3f
00000390: 751d e0bf 95f5 513f a3fd 0d3f bbb0 a83f
000003a0: af25 15bf 22b7 31bf e3b1 463e b128 463f
000003b0: 2201 98bf c731 4f3d 40bc 083f 594b a9bf
000003c0: d3c2 1c3d 4ea6 47be 79f6 933f 1802 b83e
000003d0: 4218 b53d fdf2 8c3f 4451 083d 91bd b43f
000003e0: 2d87 cdbf 9451 2fbe c8a0 0b3e 3063 cabe
000003f0: b226 b3be 37ea a9be 0135 2c3f a76e 85bf
0.015398641 -0.30188954 1.575987 -0.6006171 -1.1206402 -1.1535269 -1.5159955 0.4929356
0.99700636 1.3193642 0.053483598 2.1619554 0.619379 0.41331446 2.509887 -2.1599889
-0.8565725 -0.81581324 1.7938992 1.2533623 -0.050554074 -1.2881911 1.3414038 -0.97566575
-0.84382564 0.42317623 0.36763522 0.29317236 -0.121338524 -1.1488988 -0.32286772 0.9157214
0.090950884 -0.5757793 -1.7741092 -2.3538654 -0.09711704 -0.20034187 0.11321197 -0.56437546
1.1581726 -1.2951504 -0.17107935 -1.7744062 0.5934378 -1.0759907 -1.3077457 -0.51115084
0.35380104 -0.78438276 1.4619803 -0.39089075 2.042709 2.1461163 0.48401117 -1.525166
0.3980165 1.5037805 0.3190791 0.65164685 1.2497056 1.3065894 -0.49804235 0.5804307
2.127569 -0.2600459 -1.3738859 0.29555994 -0.5436001 0.112698466 1.4151458 0.23470247
-2.425293 1.31144 -0.23046717 0.39644393 1.5647398 -0.6937261 -0.25905368 0.6220812
1.0967093 -1.1742518 -0.6596359 0.18729088 0.20748788 0.54667777 1.9655404 3.2494018
-0.9686633 -0.74913806 0.10679952 -0.25760934 -0.8919907 0.18450606 0.4006299 -0.8036522
-1.2343547 0.22236535 -1.9468985 0.9474423 0.8763134 -0.0318531 0.8357193 -0.198041
1.1255268 -1.5344797 -1.5919396 0.27249852 1.9338946 1.5217566 1.334887 -0.3978278
-0.3724651 -0.053948138 0.9387469 0.4252725 -0.66814184 -0.93334365 0.83235276 1.3614464
-0.5224967 1.8957652 0.52684045 -1.1020865 -0.7717639 0.34746525 0.5770387 -1.772267
-0.7511699 -2.3142157 0.4503488 0.70125103 -0.9817039 0.021189675 -0.2146345 0.6969905
-0.8536249 0.8762885 -0.7083322 -0.18759659 -0.27102497 0.6862951 0.11385029 -0.20868973
0.025219306 0.76573163 -0.6642343 0.55345315 0.06981432 -0.579518 1.4669329 -2.0055518
-0.19965035 -0.21836874 0.30481204 1.0071238 0.13026072 -1.4191426 0.27772686 0.59579843
0.26912588 0.7510834 0.2553441 -0.28733727 0.544452 -0.52675647 0.32626328 -0.57993615
-0.86799365 -0.27794504 -0.10518803 0.7571878 1.5638673 -0.8351757 0.024548555 0.59353054
0.5793335 -0.07201825 1.8550291 0.2491072 1.1096169 -0.5372911 -2.0890296 0.54106987
-1.3165866 1.9036857 -0.12763166 0.8320411 -1.6181457 -1.0338056 -1.3662262 -1.8015159
0.19029243 -0.65797985 0.32685095 0.48618382 0.13491566 -0.22732869 0.20666403 2.461014
-0.9433155 0.5921191 0.45663053 0.733319 0.28727704 0.77780896 -0.18303846 -2.0237904
-1.5600387 0.10401634 0.21553543 -0.7750479 -0.20236209 1.3651041 0.9656427 0.5730707
-0.34154624 -0.12172418 0.53348076 -1.1349864 0.11157061 -1.1058346 0.3035004 -1.9820087
-0.9383602 -0.7847764 -1.1566982 1.8609796 -1.750899 0.82015353 0.55465144 1.3178934
-0.58260626 -0.69420063 0.19403796 0.7740584 -1.1875346 0.05058458 0.53412247 -1.3226119
0.038271736 -0.19497034 1.1559592 0.35939097 0.088425174 1.1011654 0.033280626 1.4120351
-1.6056877 -0.17120963 0.13635552 -0.395288 -0.3499046 -0.33186504 0.6726838 -1.0424393

weight f4 [32, 60]
00000000: 6fe5 08be 20cf 503e a9be 6c3b 7884 04bd
00000010: 1cd4 42bd e220 b63c bab8 5d3d 6432 7cbe
00000020: 5012 683d e522 b03d d35a 15bd 62d5 09bd
00000030: 1aa2 a03d 343b 96bc aef7 d7bc d38b 6abd
00000040: c726 96bd b239 c63d 3baa 45be 35c5 b7be
00000050: bd98 243b ecfc acbb 1fc4 8d3e a281 b1ba
00000060: 9243 6cbd 7138 90bd 61a0 a8bd a2f9 813d
00000070: 1213 e3bc 0731 7e3d 34f5 743d 7303 013d
00000080: b317 bebc 6dcb 61bc eeba 9d3d 4449 52bd
00000090: da1f 2bbd 5c9a db3d 4e4d 80bd 89a6 98bd
000000a0: b666 1fbd d973 153c afae b03d d31b 253d
000000b0: ac09 103d caa6 fcbd 40ac dcbd b142 9e3d
000000c0: 1a7c e23d d016 46bd 4166 2abd 65a6 ad3d
000000d0: 6989 3ebd 680b cbbc 7547 f13c 2ac3 923d
000000e0: 83b8 cc3d 8bfc 27bd 7ebe cfbd 69f8 83bb
000000f0: d6d7 ea3d c766 6bbc 4fbf 52bd 117f 08be
00000100: 71b6 40bd 4ae9 10be 2452 36be b54b 253d
00000110: 8a0f 2fbd e6ed c53d cd89 953d bccb f13c
00000120: 0b21 a9be 0ea9 88bc cb8b 9abe 9d19 dcbd
00000130: 5bb9 9c3d 0ace 88be a8cf 07be 17f5 65bd
00000140: 720e 5b3d 9649 38be 5669 37be 188d 97bc
00000150: 63d1 f6bd 577f 4c3e 9885 9f3b c411 9fbd
00000160: fbd0 8cbd f433 cf3d 1bf1 af3c 93b3 a63d
00000170: c2dc 29bb d8e3 14bd 33fe 79bd baec 6e3d
00000180: 2e5f ee3d d5a9 24bd e7b9 c33c fcc7 d83c
00000190: 9a6b 95bd 00f8 d4bd 3939 93bd d55c bdbd
000001a0: 9542 843d 089a d9bd e6a7 e3bc 6899 a63d
000001b0: 7dfc 7cbd a118 003d 97a2 343d 17b2 813d
000001c0: c39b af3d 4ace f0bd 5953 083d a85a b3bd
000001d0: 0422 a83d 0ecc a73d 692f ae3d 30ff 2fbd
000001e0: d1ca 84bd bc3c 203e 6152 d43d 386f 873c
000001f0: ab57 3c3d 3910 1f3e 8eb6 053e 16c6 8ebd
00000200: 273c 9bbd 880d babb 43ee 6abc 8be0 2bbc
00000210: 8eeb c83d 7bce bf3c f74d 4c3e 26f5 80bc
00000220: be8f 0a3c b955 aa3e 9393 7ebd 5072 36be
00000230: 0d4d 85bd bc9a 98be b751 45be cbf4 613d
00000240: d9e5 e53d 8641 85be 8f9c e1bb b222 713d
00000250: bf19 6ebd d9de 49bc 03ee c0bb 24b9 d7bb
00000260: 5854 103d e5c3 8fbd fb01 ce3d 6c95 4b35
00000270: fbb3 623d ed90 83bd c07c 97bd 2306 103d
00000280: 3e53 bd3d 85ec a8bd fef2 1e3d 3dac aabc
00000290: 2743 c7bb df45 02bd 0ca4 a23d 3543 9ebd
000002a0: f0d2 d839 648c 03bd c926 ff3d c2e8 8cbd
000002b0: b012 60bd 7d56 bd3c 5b23 c53d c214 9d3c
000002c0: d69a 653d 66ba 873d bd63 073c 0dac f8bc
000002d0: c93d debd e11a 843c c0de 57bb e8dd acbd
000002e0: 4d43 47bd 98bb c7bd 950a eb3d b17b 6d3d
000002f0: af22 4f3d 2b1d fabd 7737 953d 237c b83d
00000300: 5810 86be ddba cb3d 9ac1 ccbd aa63 63bd
00000310: 8b88 2d3d 2b5e d13d c803 383d c19b dbbd
00000320: cf2c d4bc 1944 9abe c69d 99be 3a72 78be
00000330: 5da1 0fbe 8802 803e de1b ecbd 47ca 1f3c
00000340: fa6e 36bd 9674 eb3d 8f38 26bd 1b38 133d
00000350: e562 743c 87f5 f4bb 6d3a 27bc 56c3 703d
00000360: 777a 9dbc 4e2b 993d e1fd 863d 98bc 8d3d
00000370: 9617 513c 246b 543d 8aab 75bd c585 cdbb
00000380: 7227 c1bd c90b 9e3d 0575 b3bd 7479 a5bd
00000390: 5120 89bd cb3b cc3d 0e08 f0bd 9e12 cd3d
000003a0: ff06 8e3d 9ac4 96bc d76c ac3b f536 b3bc
000003b0: 2c29 84bd d835 da3d ad6d 97bc 3aad c03c
000003c0: 1449 b9bd 44ed 473e 0bac 073e c7e9 793d
000003d0: e63e d2bc c855 333e 99ed bc3d 8b51 113d
000003e0: dd88 043e 69ed cc3d 3831 1a3d 91a6 bfbc
000003f0: b71e 143e dc1a a8bd 9d3e 043e 42ff a3bd
-0.13368772 0.20391512 0.0036124384 -0.032352895 -0.047565565 0.022232477 0.054131247 -0.24628597
0.05665809 0.086004056 -0.03646357 -0.033650763 0.078434184 -0.018338777 -0.02636322 -0.057262253
-0.07331615 0.09678973 -0.19303219 -0.35892645 0.0025115453 -0.005279174 0.2768869 -0.0013542662
-0.057681628 -0.07042015 -0.08233715 0.06346442 -0.027719054 0.062058475 0.059804156 0.03149743
-0.02320466 -0.013781411 0.0770167 -0.051339403 -0.041778423 0.10722801 -0.06264745 -0.07453639
-0.038916312 0.0091218585 0.08627068 0.04030974 0.035165474 -0.123365 -0.107750416 0.07727564
0.11058827 -0.0483616 -0.041601423 0.08479003 -0.046517763 -0.024785712 0.029453019 0.07166131
0.0999613 -0.041012328 -0.101437554 -0.0040274155 0.11466949 -0.014367766 -0.051451977 -0.13329722
-0.04704899 -0.14151493 -0.17804772 0.040355403 -0.04273943 0.09664516 0.07301674 0.029516093
-0.33033022 -0.016682174 -0.3018478 -0.10747073 0.07652541 -0.26719695 -0.13262808 -0.05614194
0.053480573 -0.17996821 -0.17911276 -0.018499896 -0.12051656 0.19970451 0.0048682205 -0.077670604
-0.06875797 0.10117331 0.021477273 0.0813972 -0.0025918935 -0.0363501 -0.06103344 0.05833123
0.11639248 -0.040201027 0.023892356 0.026462547 -0.07295914 -0.10398865 -0.07188649 -0.09246222
0.06458012 -0.10625082 -0.027790021 0.08134729 -0.06176423 0.031273488 0.04410037 0.06332796
0.08574631 -0.117580965 0.03328261 -0.08757526 0.08209613 0.08193217 0.085051365 -0.042967975
-0.06483997 0.15648168 0.10367275 0.016532525 0.045982044 0.15533532 0.1305792 -0.06971376
-0.075798325 -0.0056778826 -0.014339033 -0.010490547 0.098105535 0.023413887 0.19951616 -0.015741896
0.008457122 0.33268526 -0.062152456 -0.17817044 -0.06508837 -0.29805553 -0.19269453 0.055165093
0.112254806 -0.26026553 -0.0068851183 0.05887098 -0.058130022 -0.012321197 -0.005887748 -0.00658335
0.035236686 -0.07019786 0.100589715 7.584083e-07 0.055347424 -0.06424127 -0.07396841 0.035162102
0.09244393 -0.082482375 0.038805954 -0.020834083 -0.006081003 -0.031804916 0.07941446 -0.077276625
0.0004135589 -0.03211631 0.124585696 -0.068803325 -0.05470532 0.02311253 0.09625884 0.019174937
0.056055866 0.066273496 0.008263526 -0.030355478 -0.10851628 0.016126098 -0.0032939166 -0.08440763
-0.048648167 -0.097525775 0.11476628 0.05797929 0.050570186 -0.122125946 0.0728597 0.09008052
-0.26184344 0.09947751 -0.09997864 -0.05551497 0.042366546 0.10223039 0.04492548 -0.10723067
-0.025900273 -0.3013008 -0.30003184 -0.24262324 -0.14026399 0.2500193 -0.11528753 0.0097528165
-0.04453943 0.114968464 -0.040581282 0.03594218 0.014916156 -0.007475558 -0.010206801 0.058780037
-0.019223435 0.07478963 0.06591392 0.06920737 0.012761971 0.05185999 -0.059978046 -0.00627205
-0.09431352 0.077170916 -0.08762554 -0.08079806 -0.06695617 0.09972342 -0.11720286 0.100133166
0.06934928 -0.018404294 0.005261998 -0.021876791 -0.064531654 0.10654801 -0.018484915 0.0235201
-0.09047142 0.19524103 0.13249223 0.061013963 -0.025664758 0.17513192 0.09225006 0.035478156
0.12942834 0.1000622 0.037644595 -0.023394855 0.14464842 -0.08208248 0.1291451 -0.08007671

bias f4 [32]
00000000: 8e5a 283d 963a ccbd 37b2 253d f8cc acbd
00000010: 8b69 60bb 9fef d73d ff85 d23c 9c50 073e
00000020: d1bb c63d a261 a13d ef71 083d 0be9 ce3b
00000030: f01a 3a3d e9c8 8ebd 63e6 343c c412 fcbc
00000040: b99c e43d 95a5 6a3d 5f82 4dbc fbd8 a93a
00000050: d496 d33d de65 50bd d3fc 13be f654 e03d
00000060: 692e e53d 1744 6e3d 613f 32bd 6f5e fd3d
00000070: fb31 cabd b0a8 0f3e d6bd cfbc d917 a9bc
0.041101985 -0.09972112 0.040453162 -0.08437532 -0.0034242596 0.10543751 0.02569866 0.13214344
0.09703792 0.0787995 0.03331178 0.006314402 0.045435846 -0.06971914 0.011041257 -0.030770667
0.11162705 0.057286818 -0.01254329 0.0012958342 0.103315026 -0.050878398 -0.14451914 0.10953705
0.11190493 0.058170404 -0.043517474 0.123715274 -0.09872814 0.14029193 -0.025359076 -0.020641254

weight_ih_l0 f4 [128, 32]
00000000: 0e70 0e3e 43e9 1fbe e76d ccbb f9a0 4bbc
00000010: f4b2 47bc 8f5f e2b6 9394 a6bc 9b87 e5bd
00000020: 104a bb3d c073 01be ad4f dabd 202e 24be
00000030: 1c0a b63d 0955 ad3d 8525 a53d d0d4 ba3d
00000040: 8eec 4abe 6423 e83d e825 363d 369c 283d
00000050: bd5e 453d 50fb 43bc 283a 69bd 5483 22bd
00000060: ece7 04be 2a53 04be 6c26 ab3c d7bf ddbb
00000070: 4476 afbd 9fdc 273c 389a c6bb 3437 b7bd
00000080: 6d9b 0bbe 7030 953d 1ccf 483d 51de 5ebd
00000090: b07f 1abe 6f30 c2bc 61e7 dc3c 92a2 823c
000000a0: b5ae b33d 3e52 00be 3e3d 1b3e 508d 6fbc
000000b0: 95b7 8abd 4aa7 103e 9764 ffbd 318d b3bb
000000c0: 4f01 6ebd 0b95 b43d 46ba bd3d 4a84 31be
000000d0: 49ee dc3d 4c35 d33b 4bf8 283e 7986 423e
000000e0: e41c 32be 4eca 1ebe 1613 443d 2fab 473e
000000f0: 5f28 e53d 62f0 2cbe 1074 0bbe 901a da3d
00000100: 0cb7 133e 8796 5fbc 1a92 b8bd 9577 f73c
00000110: a1fd 1d3e c2f2 97bd 3862 91bd abfd 0e3e
00000120: 9dc8 f4bd 613b 333e f1db 2b3e 2848 93bd
00000130: 0d9b 1bbe ef3c eb3d 26f4 c9bd b1e7 473d
00000140: 9bf8 c4bd 1599 8ebd 489f fcbd 68f9 a5bd
00000150: 943a a7bd c6bd 413d 4130 21be 90fa bd3d
00000160: d857 07bd 0eef 983d b3d0 0e3d d378 bdbd
00000170: c8c2 59bd 81ac ae3d e427 ecbd 6ef6 21be
00000180: 2269 9d3d 9dc0 a1bc 7401 083e bc11 8bbd
00000190: 1af6 7cbd ef2c 48be 7601 243e 38cc c93b
000001a0: ea53 46bd e48c ccbd 9334 17bd ce83 52bd
000001b0: 35d6 16bd 53e7 143e add4 59bd bb66 763d
000001c0: 9b20 9d3d 1114 163e 5c3d 713d de6a 1ebd
000001d0: ce20 ecbc 9adc 6e3d 64b5 323c bed2 f2bd
000001e0: 40e1 a0bd cab8 e7bd 4275 263e 827e 5fbd
000001f0: c23b d13d 7c6f 553d 7284 773d 1ead 1abe
00000200: 6f2f 113e f973 8dbd 2be3 cfbd 5303 20be
00000210: 039e 35bd ed7f fe3b f9b3 233e a7a3 1bbd
00000220: 97c5 d5bd f040 993c 1758 b9bc 6ca2 d1bc
00000230: 6c2f 2bbd 264f e53d 6fb4 d53d 2162 f13c
00000240: deef 2b3e 4721 a63d 6644 c33d 5c54 db3b
00000250: 33ab b6bb 7670 f53d 10db 3b3d f400 6c3d
00000260: bd93 313c a90c 213e 2539 a1bd 650a 98bd
00000270: 2997 7dbd c888 edbc c731 f23d dc9d 1abe
00000280: 9b3c d9bc 7520 f8bc 8299 a4bd 319d 763b
00000290: 8765 5d3d 9684 873e bf65 773d 83c9 c7bd
000002a0: 8bdc ecbd c80f 64be cc78 96bd 37b8 c23d
000002b0: f91f a8bd cb6d 173d d0cd ec3c 95a3 a9bd
000002c0: 9f8a 1bbd e336 02be 151a 70be e72b 883d
000002d0: 3d63 b03d ee2b 23bd 6e67 47be ed06 db3d
000002e0: e8b2 bcbd 7456 6cbe 832d 5b3e 8f25 f7bd
000002f0: cba1 023d aa1f 3f3e ec79 36bd db5f ebbd
00000300: a729 253e 38e6 653d a3eb ebbd 0074 6d3d
00000310: 6d8e 03be ce4b 403e c6ce bd3d 1627 a33d
00000320: 4e80 d8bb f1d0 ddbd 7ec0 96bd d6e8 cd3d
00000330: c58c fcbd c06d 323b 4b20 f7bd b496 89bd
00000340: a498 3e3d 618b f6bd 830b 15be 6ed9 b13d
00000350: 931a 3dbe e5ef 17be dfff 933d 6072 aabd
00000360: 0ea9 93bd 5ca7 0abe bae9 153e f1fb b73d
00000370: dcc3 9abd c284 1a3c 2b40 e13c 89ce 55bd
00000380: 9575 533d 0159 c43c 1442 21bc d491 adbc
00000390: 20af 4abc c115 4e3e beb3 033e d526 1ebe
000003a0: fe60 2dbe c438 7b3d a4c3 d53d ed36 153e
000003b0: d24a 37be a0b2 0f3e c740 d13d ad17 713d
000003c0: 4716 fe3d a2f6 05be 2206 cbbc 541d 193e
000003d0: 975b c03d 3803 8fbd bf38 10be 5eab e9bb
000003e0: ac76 3fbd 22d1 063e 489b dc3c d927 853e
000003f0: 9177 d7bc 74cf 1c3e 406e 883d 9616 28be
0.13909933 -0.15616326 -0.0062386873 -0.012428516 -0.012188662 -6.7464493e-06 -0.020334518 -0.11207505
0.09144986 -0.12641811 -0.10659728 -0.1603322 0.08888647 0.08463485 0.08063797 0.09122622
-0.19816801 0.11334875 0.044469744 0.0411646 0.048186053 -0.011961773 -0.056940228 -0.039676026
-0.12979096 -0.1292235 0.020892344 -0.006767254 -0.08567479 0.010245471 -0.006060865 -0.08946076
-0.13633509 0.07284629 0.04902564 -0.054411236 -0.15087771 -0.023704736 0.026965799 0.01594666
0.08773557 -0.12531373 0.15160081 -0.014621094 -0.06773297 0.14126316 -0.12470358 -0.005479478
-0.058106717 0.0881749 0.092640445 -0.1733562 0.10787637 0.0064455625 0.16500966 0.1899661
-0.17393833 -0.1550686 0.047869764 0.19498895 0.11189341 -0.16888574 -0.13618493 0.10649598
0.14425296 -0.013646728 -0.09012242 0.030208388 0.15428783 -0.07419349 -0.07098812 0.13963954
-0.119523264 0.1750312 0.1678312 -0.07191497 -0.15195866 0.114862315 -0.09861021 0.048804943
-0.0961773 -0.06962792 -0.12335068 -0.08104211 -0.0816547 0.047300123 -0.15741064 0.09276307
-0.03304276 0.07467471 0.034867 -0.09251561 -0.053164274 0.08528996 -0.11531046 -0.15816662
0.07686068 -0.019745165 0.13281804 -0.06790492 -0.06175814 -0.19548391 0.16016182 0.006158378
-0.04841987 -0.0998781 -0.036915373 -0.05139523 -0.036825377 0.14541368 -0.05318134 0.060156565
0.076722346 0.14656092 0.058896407 -0.038676135 -0.028824236 0.05831585 0.010907505 -0.11856602
-0.07855463 -0.113145426 0.16255668 -0.054564007 0.10216476 0.052108273 0.060429044 -0.15105101
0.1417825 -0.06906886 -0.10150751 -0.15626268 -0.044340145 0.007766715 0.15986623 -0.037997868
-0.10438078 0.018707722 -0.022625012 -0.025590144 -0.041793272 0.11196737 0.104348056 0.029465737
0.16790721 0.08111816 0.0953453 0.006693406 -0.0055746078 0.11984341 0.04586321 0.057618096
0.010838446 0.15727486 -0.078722276 -0.074238576 -0.061911736 -0.028995886 0.118259005 -0.15099281
-0.026518157 -0.030288914 -0.08037092 0.0037630314 0.054051902 0.26468343 0.060399767 -0.09755232
-0.11565503 -0.22271645 -0.07347259 0.095077924 -0.08209223 0.03696994 0.028906733 -0.08283154
-0.037973996 -0.1271625 -0.2344745 0.06648999 0.08612678 -0.039836816 -0.19473049 0.1069468
-0.09213811 -0.23079854 0.2140408 -0.120677106 0.03189258 0.18664423 -0.044549868 -0.11492892
0.1612917 0.056127757 -0.115195535 0.057971954 -0.128473 0.18778917 0.092679545 0.079664394
-0.006607092 -0.10830868 -0.07360934 0.100541756 -0.12331537 0.002722606 -0.12066706 -0.067181975
0.04653229 -0.12038303 -0.14555173 0.086840495 -0.18467169 -0.14837606 0.07226538 -0.083225965
-0.07209979 -0.13540405 0.14639941 0.08983601 -0.075568885 0.009431066 0.027496418 -0.05219892
0.051625807 0.023968222 -0.009842414 -0.0211877 -0.012370855 0.20125486 0.12861535 -0.154445
-0.16931531 0.061333433 0.10437706 0.14571734 -0.17899635 0.14032984 0.102174334 0.05886047
0.12406593 -0.13082364 -0.024783198 0.14952594 0.093924694 -0.06983036 -0.14084147 -0.0071310243
-0.046744034 0.13165715 0.026929513 0.26006964 -0.02630213 0.15313512 0.066616535 -0.16414866

weight_hh_l0 f4 [128, 32]
00000000: b6ac 313e 9730 8abc fac6 07be a262 f5bd
00000010: dff3 c6bd d23f 373d 8571 b4bc 1326 c23d
00000020: 0e9d 013e 11a7 1cbe 4c84 68be 285e c4bd
00000030: ba33 393e 2d01 153e 342b b2bd 8dd3 d13d
00000040: 1eca 1e3e e4b6 243e b95f bdbd 05ca ffbd
00000050: d5d7 7b3d 4a05 fabd 6377 e73d 27db f53d
00000060: caf6 193d ca7d 12be be67 213e e140 4cbe
00000070: b14f fbbc 078f d0bd b78f 17be af0e 0cbe
00000080: 75c5 fa3d 7e6c ebbd c0e1 f53d e2f5 d5bd
00000090: 51d5 57bb d9e7 c5bc 99bc 4f3e 86dc c8bd
000000a0: 3843 a03b e40a b83c e87a b9bb 5de7 aabc
000000b0: e769 c9bc 7449 f23d 0b67 0f3e 6425 b4bd
000000c0: a951 013e eeac 5c3c 6220 f0bd 2f28 093e
000000d0: 1046 51bc 7a08 08be 9261 823c a758 533e
000000e0: 2eba da3d 9b29 c2bd 6edf f8bb 0abe b1ba
000000f0: a6e9 9ebd 4120 84bd 81eb 053e 21c2 babd
00000100: 0c83 113d bf94 873d 324f 58be 57e1 01be
00000110: 7b40 f13c c9f8 33be c503 a4bd 5b60 32be
00000120: 36aa f33c b000 843d a097 4bbe 5f65 3e3e
00000130: 48ed f53d 2d77 633c 7027 823e de7d 943d
00000140: ac43 17be d7b4 2b3d 176e e2bd da01 263e
00000150: 0807 fbbb 2d03 063e 9037 a9bc c6b4 5d3e
00000160: 9432 d8bc 4a65 24be 2900 b53d c7a5 c03d
00000170: 56ee 17be 50ba f7bd 4654 b33c d7a4 2cbe
00000180: 1c30 163e 11a5 c83d fd12 c33d f5ea f63d
00000190: 0949 b0bb 5655 7d3e ed6f 3d3d 94ce 01be
000001a0: 19b3 0dbe d4de 95bc a7f9 35be 7103 fe3c
000001b0: 291a 0bbe 3140 36be b872 c93d b0e6 8dbc
000001c0: 0448 fdbc 6481 c53d 6660 143e 50c9 b2bc
000001d0: b19b 023c 501c 7a3e 2ba5 1b3e dd42 83bd
000001e0: 9982 ff3d 27e2 863d be2d 5bba cf78 683d
000001f0: e7ff c63d f9fc d0bc 2be9 a23d 93c5 00be
00000200: 2684 323d c5f5 34be 5079 4dbe 48b3 833d
00000210: 286a 55be 883f afbd d0cd d43d 0a68 843c
00000220: 6259 7fbd 57f6 063e 13b1 d2bd 84e0 843d
00000230: f4a8 c1bd eaac 68bc 9d41 32bb fb28 0dbd
00000240: 5adf 483e 6ab8 743e 17a3 c33d 9df0 edbb
00000250: 2780 333d bc20 9c3d 98ce e8bd 3ddf dbbc
00000260: 9566 033d 4333 5dbd 38ce 6b3d 0ba7 58bd
00000270: ebe1 bdbb ffe8 51bd 0e82 883d bc58 31bd
00000280: 4de3 223e 26fa 3b3d 3560 5bbd e0fe 7dbd
00000290: 4fd9 9a3d 2393 c5bd fc0b b6bd 0145 8cbd
000002a0: e9ba 5c3e 54a0 1bbe c0da cc3c 73da a7bd
000002b0: 16fb d63d 5add 3fbe 133f 763c b5de 913e
000002c0: a057 a6bd 3640 123d 73f7 333e 12a8 443e
000002d0: 009c 80bd 2c05 893c 978a 9bbe aaf4 92bc
000002e0: 2bf4 973c 1db6 b0be cde3 a93e ad6c 7a3c
000002f0: 7b2c 03be 3807 613d e07e b1bd a42e d13d
00000300: dc36 ba3d 75fa 553e 0e99 45be 5f29 03be
00000310: ffc8 0fbe 96a6 07be 3ce6 8a3d b4a2 473c
00000320: 95c2 d63a 98db 09be d577 b8bd 45a9 553e
00000330: a55b a2bd d3f6 4cbe e50b c3bc 96a6 363e
00000340: f7e2 6fbc ca60 a73c 8cd1 f13c d7b4 cd3c
00000350: 488b 983d 2900 31be 6458 19be 96ed 46be
00000360: 07f3 ce3d 1502 a8be 1a3a 1d3e 8f47 b8bc
00000370: 5a23 1bbe 2f85 5c3d 77c8 3ebe f836 f2bd
00000380: 453b 493e 11aa b83d 7e7b b2bd d426 4ebe
00000390: 77ca d03d d8cc 553e 7e85 93bc 5880 ca3d
000003a0: 9e79 233d 23b7 17be a385 82bd 47a9 c83d
000003b0: 4982 9abc 51c7 b43c d012 d3bd 52d1 5b3e
000003c0: aeab 84bd e2e0 94bd 1e65 a73d aef4 5bbd
000003d0: 5417 99bb 2f44 3ebe 92d8 a93d cddf 5abe
000003e0: fc11 033e d045 b23c e2aa 1bbe b53c 643e
000003f0: bc82 3d3d 75fa 2f3e 1e1a 453e 7128 0cbe
0.1735104 -0.016868873 -0.13259497 -0.11981703 -0.097144835 0.0447386 -0.022026787 0.09479918
0.12657568 -0.15298106 -0.22706717 -0.095882714 0.18086138 0.1455123 -0.086996466 0.10245428
0.15506789 0.16085392 -0.09246773 -0.12489704 0.06148513 -0.1220804 0.11302068 0.120046906
0.037588872 -0.14305797 0.15762231 -0.19946624 -0.030677648 -0.1018353 -0.14800917 -0.13677476
0.12244693 -0.114953026 0.12005949 -0.10447289 -0.0032933543 -0.024158405 0.20286788 -0.098076865
0.0048908256 0.02246613 -0.0056604035 -0.020862276 -0.024586631 0.11830416 0.14004152 -0.08796194
0.12628807 0.013468964 -0.117249265 0.13394235 -0.012773052 -0.13284484 0.015915666 0.20639287
0.10680042 -0.09480592 -0.0075949943 -0.0013560664 -0.07759409 -0.064514644 0.13078119 -0.091190584
0.035525367 0.06620168 -0.2112396 -0.12683617 0.029449692 -0.17575373 -0.080085315 -0.17419569
0.029744249 0.06445444 -0.19882059 0.18593358 0.120081484 0.013883394 0.25420713 0.0725057
-0.14771909 0.04192051 -0.11056154 0.16211644 -0.0076607503 0.13087149 -0.020656377 0.21650991
-0.026391305 -0.16054264 0.08837921 0.094066195 -0.14837012 -0.12096083 0.02189077 -0.16859756
0.1466679 0.09797109 0.09525106 0.12056533 -0.0053798 0.24739584 0.04624932 -0.1267646
-0.13837852 -0.01829473 -0.17771016 0.0310075 -0.13584198 -0.17797925 0.09836334 -0.017321914
-0.030918129 0.0964382 0.14489898 -0.021824509 0.00797169 0.24424863 0.15199725 -0.064092375
0.124760814 0.06586104 -0.0008361003 0.056755837 0.09716778 -0.025511252 0.079546295 -0.12575369
0.043583058 -0.17671879 -0.20065808 0.064306796 -0.20841277 -0.085570395 0.10390818 0.016162891
-0.0623411 0.13179909 -0.102876805 0.064881355 -0.094560534 -0.014201382 -0.0027199753 -0.03446291
0.19616452 0.23898473 0.09552591 -0.0072613494 0.043823387 0.07623431 -0.1136753 -0.026839847
0.03208025 -0.054003965 0.057569712 -0.05289368 -0.005794754 -0.051247593 0.06665431 -0.043297514
0.15907021 0.045892857 -0.053558547 -0.062010646 0.075609796 -0.09647205 -0.088890046 -0.06849099
0.21555676 -0.15197879 0.025006652 -0.08195963 0.104971096 -0.18736783 0.0150296865 0.28490224
-0.08122182 0.035705768 0.17574863 0.19204739 -0.06279755 0.016726099 -0.30379173 -0.01793893
0.018549046 -0.3451394 0.3318161 0.015284699 -0.12809937 0.054938525 -0.086667776 0.10213974
0.09092495 0.20896323 -0.19296667 -0.1280875 -0.14041518 -0.13247141 0.06782195 0.012184788
0.0016384894 -0.13462675 -0.09007231 0.20865352 -0.07927636 -0.20016031 -0.023809383 0.17836985
-0.014641515 0.020431895 0.029518865 0.025110645 0.07448441 -0.17285217 -0.14975125 -0.1942657
0.101049475 -0.32814088 0.15354195 -0.02249506 -0.15150204 0.05383795 -0.18631159 -0.11826891
0.19651516 0.090168126 -0.087149605 -0.20131999 0.10194867 0.20878923 -0.01800799 0.09887761
0.039910905 -0.14815955 -0.063731454 0.09797912 -0.018860953 0.022067698 -0.103063226 0.21466568
-0.06478058 -0.072694555 0.081735834 -0.05370014 -0.0046719704 -0.18580697 0.08293261 -0.21374436
0.12799829 0.021761805 -0.15201905 0.22288783 0.046267256 0.17185386 0.19248244 -0.13687302

bias_ih_l0 f4 [128]
00000000: 1e9d 08be 16bc adbd 6934 6b3e 4d8f 8dbc
00000010: c934 ccbd 93e0 893e 65e2 3abc 0c38 e6bd
00000020: 2aea 143e 34f1 1e3d 6aec 8b3c cf7e 663c
00000030: b833 1abe 6120 d43d 5179 583d 3ff2 59bd
00000040: 5fb1 a93d fdef 2b3d 179b e03d 24f7 0dbe
00000050: 1943 c43d 945b 0b3d a5ba c33c 320c 233e
00000060: dd35 5d3d f72e 3f3e 6d44 8abc be45 67bd
00000070: a747 d3bd 8e09 6a3d de30 263d 1e19 963d
00000080: fe2e 3b3d 2c55 1dbd acc9 d23d 757c bcbd
00000090: 8222 3cbc faa6 39bc 5469 6abe a901 d7bc
000000a0: b54b 043e 7b5e 313d ac3f e4bd 5d12 25bd
000000b0: e668 c73c 8005 0ebd ea3e 6a3b 946f e33d
000000c0: 8344 19be d363 4fbd 67fd e33d 3f16 8e3d
000000d0: 6173 28bd 8bdb 22bd e810 933d 78a5 d23c
000000e0: d2a3 773d b5f1 d03d ac79 aebd 490b 3cbe
000000f0: 8a20 cfb9 b575 4c3b 8b9f f33d 8bf1 9ebd
00000100: 2c63 213e 7116 dc3d 8bb8 4ebe 49df 28be
00000110: 8af0 bd3d 320f 163b b50f 9a3d eb6d 173c
00000120: 9061 283e b1ae 52be 2f41 9bbc fe5f 1f3e
00000130: cd59 d23d 1e42 bfbd 6900 2f3e c93f 563e
00000140: cee9 64bd f2a1 78bd 5c2d 243e a0e9 a5bd
00000150: 46e5 59bd 55e7 14be 706e 5c3d 2ff6 233d
00000160: 9d75 5abb 8840 02be baf8 20bd a417 eb3d
00000170: 26bc 14bc c6c2 3b3e 5a4f 3ebe f682 953c
00000180: 577e 113e 4870 42bd 8428 2fbd 8377 65bd
00000190: b3f5 293c 2404 353e a969 163d cc7f afbd
000001a0: db09 19be 71d9 353e e63a 103d f86d 0cbe
000001b0: 2cb5 313d 965b f53c 968a e93d d7a0 423d
000001c0: 5c1d cb3b 1766 33bd caa8 a53d 1531 993d
000001d0: ee45 af3d afc7 bbba 8451 0f3e 1c03 e0bc
000001e0: 746b acbd f84c f33d a111 5abd 86fd c53d
000001f0: de87 433e fb60 0e3e aaf1 36bd 7dbd d13d
-0.13341185 -0.0848314 0.22969212 -0.017280245 -0.099710055 0.2692915 -0.011406516 -0.11241159
0.14542452 0.038804248 0.017080504 0.014068319 -0.15058792 0.10357738 0.05285007 -0.05320954
0.08285784 0.041976918 0.10967081 -0.13863808 0.0958311 0.034022883 0.02389271 0.15922621
0.054006446 0.1867026 -0.016878331 -0.056462996 -0.10316401 0.05713802 0.040573947 0.073290095
0.045699112 -0.038411304 0.10292372 -0.09203426 -0.011482837 -0.011331314 -0.22891742 -0.026245909
0.12919505 0.043302994 -0.11144957 -0.040300716 0.024342012 -0.034673214 0.0035743066 0.11105266
-0.14967541 -0.05063231 0.11132317 0.06937837 -0.04112566 -0.039760154 0.07180959 0.025713667
0.060458966 0.10202352 -0.08519301 -0.1836368 -0.0003950636 0.0031198089 0.11895665 -0.077609144
0.15760487 0.10746468 -0.20187585 -0.16491427 0.09274395 0.002289724 0.07522527 0.009242515
0.16443467 -0.20574452 -0.01895198 0.15563962 0.102710344 -0.09338783 0.1709 0.2092277
-0.055887036 -0.060701318 0.16032928 -0.08101201 -0.053197168 -0.14541371 0.05381626 0.0400297
-0.0033334263 -0.12719929 -0.039299704 0.114791185 -0.009078061 0.18336019 -0.18584958 0.018250924
0.14208351 -0.04747036 -0.042763248 -0.05602218 0.010373521 0.17677361 0.03672186 -0.08569297
-0.14945166 0.17758729 0.03521242 -0.13713825 0.04338567 0.029950898 0.11403386 0.04751667
0.0061985683 -0.043798532 0.080888346 0.07480065 0.0855826 -0.0014326478 0.1399594 -0.027345233
-0.084189326 0.11879915 -0.05323947 0.096674964 0.19094798 0.13904183 -0.044664063 0.1024122

bias_hh_l0 f4 [128]
00000000: bbe8 d63d 6120 b23c e9e0 25bc c6d0 ed3d
00000010: 9e07 e8bd 7bd6 5f3e 5bb5 183e 773d 133e
00000020: 326b c43c bc19 4b3e 125b b53d ec1b ed3d
00000030: 9ebb af3d c661 a63c a906 843c afaa 7cbd
00000040: fa28 04be 1a56 a33c 83a1 a33d 54ef 4dbe
00000050: 8ae3 e0bd b0f5 8b3c 63d8 0dbe c6b4 2a3e
00000060: 5b90 353d 13ac 023e 8a52 80bd 4406 333e
00000070: ca9d 083e 7ae0 073e 8634 783c 6a58 17bd
00000080: 21e0 6b3d 54a2 ef3d c8c0 65bd cf5e 13be
00000090: d6c2 9cbd ab56 a4bd 0eeb 28bd 8cb1 52be
000000a0: d932 ae3d 9782 c23d b4c4 08be 8cf0 f63d
000000b0: f832 673d 5246 3fbe 484c 983d 5680 06bd
000000c0: 019f f7bd fd2e 0dbe 7954 d83d ce30 4fbe
000000d0: 6f24 df3d d9e8 f5bd 8010 723c 4c3a a6bd
000000e0: 8755 d73d 63d6 2fbd b592 6cbd ab0f 003d
000000f0: 0e5f 263d 9f96 c13d 8a0e 23be cd33 1a3e
00000100: 36bd 073e 576b f63c c689 d53c a310 e83c
00000110: 2b49 17be 4916 a53d 7181 20be cb16 153d
00000120: 07ab 373e f1ec 4abd 363a 0abe 2d79 983d
00000130: d473 123e 8416 8dbc 3a81 2f3e c4ec 253e
00000140: b23c 923d 773a cd3c 16a9 e63d a82e fd3d
00000150: c04f a43d 1c7c e23d 4442 973d fd4c 613d
00000160: 69d0 183e 837e 1bbe 7a26 323e 5f79 46bd
00000170: 4518 b8bd 3362 1d3e 3874 cdbd d812 8dbd
00000180: ca6c 0f3e bd52 463e bf4e ccbc 8d95 d6bd
00000190: f8fe 3b3d e313 0e3e c31f 683e b01a 933d
000001a0: ef5f d93d 8a68 5abd 2bba 1b3e 4dda b13d
000001b0: 2b80 043e f32a 383e b4aa e3bd d4a9 f5bd
000001c0: 3a41 1d3e 851d 04bd 2471 c63c 1558 db3c
000001d0: e184 253c 635c 8fbc b416 413e 5ced 8c3d
000001e0: 35f7 183e bcf8 733e bc1d d33d 0113 5c3e
000001f0: 7402 103e 5572 f13d 22ad 1cbe 118f d33d
0.104936086 0.021743955 -0.010124424 0.11612086 -0.11329578 0.21859162 0.14912932 0.14378916
0.023976896 0.19834036 0.08855261 0.11577591 0.08580707 0.020310294 0.016116457 -0.061686214
-0.12906256 0.019938517 0.0798979 -0.20110828 -0.109809 0.017084926 -0.13852076 0.16670522
0.04432712 0.12760954 -0.06265743 0.17482859 0.13341442 0.13269225 0.015149241 -0.036949553
0.057586793 0.117008835 -0.056092054 -0.14391635 -0.076543495 -0.08024343 -0.04123979 -0.20575541
0.08505792 0.09497564 -0.13356286 0.120575994 0.056445092 -0.18679169 0.074364245 -0.032837234
-0.120908745 -0.13787456 0.10562987 -0.20233461 0.10895621 -0.12007303 0.014774442 -0.08116588
0.1051436 -0.042929064 -0.0577571 0.031264942 0.040617995 0.09452557 -0.15923515 0.15058823
0.13255772 0.03008048 0.026066672 0.028328246 -0.14774005 0.08060891 -0.15674378 0.03639869
0.17936336 -0.04954237 -0.13498768 0.074449874 0.14301997 -0.01722265 0.1713914 0.162036
0.07140483 0.025052292 0.11262719 0.123624146 0.080230236 0.11058828 0.07385686 0.055005062
0.14923252 -0.15184979 0.1739749 -0.048455592 -0.08989004 0.15369491 -0.100319326 -0.0688836
0.14006343 0.193675 -0.024939893 -0.10477743 0.045897454 0.13874774 0.22668366 0.071828246
0.10614001 -0.053322352 0.15207736 0.08684216 0.12939517 0.17985134 -0.111165434 -0.11995283
0.15356913 -0.032254715 0.024223872 0.0267754 0.010102482 -0.017500108 0.18856317 0.0688121
0.14938052 0.23825353 0.10308406 0.21491624 0.14063436 0.11789385 -0.1530042 0.10330022

weight_ih_l0 f4 [64, 32]
00000000: f973 79bd 3cdc d9bd e445 3abe e15d 233d
00000010: 9ad7 883e bf1a afbc 9f62 3fbe 95f1 173e
00000020: cb9c 433e a751 293e f556 363e 9009 583e
00000030: 74b2 3b3e 39c9 b2bd 1705 133e 5e79 0b3c
00000040: bea3 21bd f31f 5fbd da0c a93d a188 6f3d
00000050: 006a 753e 061e 313e f0e1 853e ff84 223e
00000060: 9049 1c3c eb62 483e e5db 17be 42ad 333e
00000070: 7d7e 9d3c 6c60 793e 1ad4 b93d 0b68 733e
00000080: 04ea 17bd 02a3 07be 9170 1d3e 48f6 bebd
00000090: ace0 2dbe dc25 cd3d 3266 d23d 2d3a 13bd
000000a0: d05a 253e 8bf2 63bd f09b 213e aa02 403e
000000b0: 44e5 60be 4ada 3dbc 07f7 f1bc 7ebf 62be
000000c0: 8860 453e 2271 24bd 9e73 3fbe a94c 0a3e
000000d0: bae2 a1bc 3887 6dbe 2711 523e 0987 563d
000000e0: 131f 993d ff51 83bd 0669 533b fb86 093e
000000f0: 82fc 9ebd 4145 a0bd e53c e7bc e1de 57be
00000100: b2da 1a3e f028 31bd 7d0e 21bc 3ed6 5dbe
00000110: d6a0 263e d2c3 80be f3c5 833e 4de5 873d
00000120: d07b 113e fce8 523e 5673 3cbe 7e06 5c3e
00000130: a93a 003e c4a8 123e 0c95 6f3e 2566 063e
00000140: 561b 0f3e 5ccb 8d3e 1487 373d c77b 1e3d
00000150: bc56 60be f0e9 363e 611d 263e a8be d23d
00000160: e209 e8bd d684 48be 0708 163e 72b2 e4bd
00000170: 2f81 1d3e b747 0b3d 6864 ea3d ec6a 8c3d
00000180: 7698 3cbe 1004 2e3e e4b5 923d 7bee 17be
00000190: a557 0e3d 9130 4dbe 557f 62bd 70fb e9bc
000001a0: eb3a fbbd 27a4 563e ae1a 2f3d 64c7 4a3e
000001b0: d167 363e b20f 3abd d727 03bd d4b3 3fbe
000001c0: b92c 233d 17d9 d3bc 02fc 593e 0e82 063e
000001d0: 6174 c83d e8fd 563d 5336 fabd 2fd3 183e
000001e0: 9ec0 b3bd ce22 8a3e cac2 49be 1a88 b9bc
000001f0: b605 613e 8b9d c1bd fb44 aabc 94c4 93bd
00000200: 98ad 123d 8698 7bbe 2c9a 743d ce6a e63a
00000210: 60f9 6d3d 6dc1 7dbe 733a 2bbe cf6d 003e
00000220: 13f6 403d 38ea 393e 2f2f 933d 64ac d2bd
00000230: 5fc9 ffbd c930 0d3e 7a69 213e e6b0 4f3e
00000240: 34c8 52be 3491 0dbe fb83 2ebe 2552 4f3e
00000250: f61b 0abe 2615 57bd e13b 6e3d 1172 293e
00000260: 53f1 6a3e 15ea b8bd f028 823e a9cd 5e3e
00000270: 73f6 123e 6445 d7bd 04cb 39bd f9ca 59be
00000280: 270b a23d 0b3f 633d a6e0 a83d 5b03 163e
00000290: fded 9e3d 77f4 10be f7b7 71be 21c6 f93d
000002a0: a5f4 dabd b0cb cebd 62b3 d73d b84c 0e3e
000002b0: 4141 4abe 7837 e53d 0ec1 563d 3ad4 39bd
000002c0: 4361 06be 0389 513e 8b37 7b3d 5e4f a4bd
000002d0: a6a5 7fbe 0f9f d7bc b147 903d 6711 f73d
000002e0: f046 b53d dd6d 1a3e af11 5b3e 7f36 24be
000002f0: dc35 f9bd 5a7e acbd 3309 e73d f1d5 15be
00000300: 7223 4ebe 9511 5dbe bb8a 22bd 88b0 35be
00000310: 5e61 e2bd a0ea 4dbd 2365 54be 834c 323e
00000320: 7cb9 c63d 2f4d 9bbd 8209 703d 24ae 003d
00000330: 56b0 203d 0d58 24bd caf1 643e 8d92 4d3e
00000340: 9fdd 63be 8330 e43d c3b9 0cbd e341 9b3d
00000350: 91f2 0d3e 2854 d9bc b4b6 af3d 2b26 be3c
00000360: 3c6a bdbc 9954 6c3e 400b 453e 5410 203d
00000370: 2d78 633b 50a7 99be b105 813e 4791 963d
00000380: 2fb9 b03d 4971 1dbe d733 503e 6e17 373e
00000390: 354f 083e a5fc 55be 3f2c 403e d0ad 79be
000003a0: 077e 3bbe fed0 113e 3635 e3bb 74b0 76bb
000003b0: 93a9 853e bbc7 7bbe 3c18 24be c504 533e
000003c0: 9b11 2a3e 0324 58be 1ed8 72be f0dc a6ba
000003d0: 3c34 6dbd 163d 0ebe 9d58 bd3d 65a2 873e
000003e0: 8e15 073e a635 e23d 0f62 9a3d 217b e8bd
000003f0: ef23 98bd 5e6d 5c3e de2a 1f3e 0ff4 86bd
-0.060901616 -0.106377095 -0.18190724 0.03988445 0.2672699 -0.021375058 -0.18689965 0.1483825
0.1910278 0.16535054 0.17806609 0.21097398 0.18329793 -0.087297864 0.1435741 0.008512823
-0.039462797 -0.05447383 0.08254404 0.05847991 0.23966217 0.1729661 0.2614894 0.15871046
0.009539023 0.19568984 -0.14829977 0.17546561 0.019225353 0.24353188 0.09073658 0.23770158
-0.03708841 -0.13245776 0.15374972 -0.09324318 -0.16980237 0.10016987 0.102733985 -0.035944153
0.16147923 -0.05565123 0.15782142 0.18751016 -0.21962458 -0.011587689 -0.029536737 -0.22143361
0.19275105 -0.040146954 -0.18696448 0.13505806 -0.019761432 -0.23196113 0.20514356 0.052374873
0.0747663 -0.06412124 0.0032258644 0.13430397 -0.07763006 -0.07825709 -0.028227279 -0.21081115
0.15122488 -0.04325193 -0.009830114 -0.21663758 0.16272292 -0.251494 0.2573696 0.066355325
0.14207387 0.20596689 -0.18403372 0.21486852 0.12522377 0.14322191 0.233967 0.13124903
0.13975272 0.27694213 0.044806555 0.038692262 -0.21908087 0.17862678 0.16222145 0.10290271
-0.1133001 -0.19581923 0.146515 -0.11166848 0.15381311 0.03400394 0.11444932 0.06856331
-0.18417534 0.16993737 0.07163599 -0.14837067 0.034751553 -0.20038058 -0.055297215 -0.028562278
-0.12267097 0.20961057 0.042750053 0.19802624 0.1781304 -0.045425124 -0.032020416 -0.18720943
0.039837573 -0.025860352 0.2128754 0.1313555 0.097878225 0.052488238 -0.12217393 0.1492431
-0.08776973 0.2697968 -0.19703212 -0.022647906 0.21974835 -0.09453877 -0.020784846 -0.07215229
0.035810083 -0.24569902 0.059717342 0.0017579438 0.05809915 -0.24780817 -0.16721515 0.12541889
0.047109675 0.18155754 0.07186734 -0.10286787 -0.1248958 0.13788141 0.15762892 0.20282325
-0.20584184 -0.13824922 -0.17042534 0.2024618 -0.13487229 -0.052510403 0.058162574 0.16547419
0.2294362 -0.090290226 0.25421858 0.2175814 0.14351825 -0.10511282 -0.045359626 -0.21268834
0.079122834 0.055480044 0.08245973 0.14649718 0.077602364 -0.14155756 -0.23605333 0.12195993
-0.106911935 -0.10097444 0.105322614 0.13896453 -0.19751455 0.111922204 0.052430205 -0.04536841
-0.1312304 0.20462422 0.061332267 -0.080229506 -0.24965534 -0.026320962 0.07044924 0.12063866
0.08851421 0.15080972 0.21393465 -0.16036414 -0.12168476 -0.08422537 0.112810515 -0.14632393
-0.20130709 -0.21588738 -0.039683085 -0.17743123 -0.110537276 -0.050272584 -0.20741706 0.17412
0.09703347 -0.07583081 0.058602817 0.031416073 0.039230667 -0.040123034 0.2235786 0.20075436
-0.2225251 0.111420654 -0.034356844 0.07580926 0.13862063 -0.026529387 0.0857977 0.02321156
-0.023121946 0.23079146 0.19242573 0.03907807 0.0034709082 -0.30010462 0.25199655 0.07351928
0.08629071 -0.15375246 0.20332275 0.17880031 0.13311465 -0.20897157 0.18766879 -0.2438271
-0.18309794 0.1423988 -0.0069338335 -0.0037641795 0.26105937 -0.2458791 -0.1602487 0.20607288
0.16608278 -0.21107487 -0.23715255 -0.001273064 -0.057911143 -0.1389049 0.09245417 0.26491085
0.13191816 0.11045389 0.075382344 -0.1135161 -0.07428729 0.21526095 0.15543696 -0.06589519

weight_hh_l0 f4 [64, 16]
00000000: 844d bebd 5d05 163e 7b29 edbd 77e9 1d3e
00000010: fb19 6abb 7c7b 91bd 35d9 61be cc6a 1bbe
00000020: eab6 e6bd 2729 6fbd 4eaa 833d 59e6 573e
00000030: ddbf 573e 53a3 f43d bcf7 58be 03fd bbbd
00000040: 5104 2c3e 38f7 30be 6757 043c f7cc 643e
00000050: b37d 90bc ae9e 93bb 4045 bebc ba24 4ebe
00000060: 2246 acbc 47e3 6dbe 2f98 113e 8335 ff3c
00000070: 4a4e 473c 157b 09bc 745e 07be bd77 63bd
00000080: dab3 21be 7580 87bd 8366 333e fd0d 5d3c
00000090: 198a 633c f05f b0bc 3f0a 653d c5e6 bc3d
000000a0: f9b4 4b3e 41cd 51be 3afc 453e 1018 58be
000000b0: 2b5f 8abd dbcc eebc a10f ab3d ea76 88bd
000000c0: a80c 6e3e 655c cd3c 10a9 dfbd abad 723d
000000d0: 0547 5a3e 4914 323d d3fa 7c3e a348 523e
000000e0: f2bc f7bb d66c 2e3e 9b04 063e a112 043e
000000f0: 0176 38be 60bb 08bc b57a 34be cc06 fbbd
00000100: d1a9 4d3e 4b8e e23d 9208 6fbd d423 223e
00000110: 6e92 743e 3bbb 993d 343c 153e 2902 acbd
00000120: 3626 4e3d 266b 8a3d 2bf0 43be 93c5 2a3d
00000130: e3c7 7c3e df51 f53c 3fa9 84be 629a 37bd
00000140: 385a 8f3d a012 733d ce0b 0f3e 623c 3d3e
00000150: 085b 14be 4a94 023d f71d f6bd a93f 5c3e
00000160: 5165 823d bcb1 473e f731 463c fe93 673c
00000170: ed67 5dbe ea01 213e d761 553c e554 06be
00000180: 8651 19be f61c 40be 30db 253e fb3e 193e
00000190: 3206 683c 122d c93d 291d 433e d202 253e
000001a0: e26b 373e b253 a63d c3e9 763e bee3 94be
000001b0: fa05 033d f0f3 fd3d b406 29be 33ed 103e
000001c0: a391 8b3d 8720 b53d 0495 413e 7000 fc3d
000001d0: eca9 803e 618b 8f3e 7a5b aebe c515 923d
000001e0: cca2 5fbe 14f5 23be a30e 5ebe fb67 c93d
000001f0: d384 543e 8f0a 56be 4f20 8fbd 719a 8abc
00000200: 535e 223d cf5d edbc 9b1e 813d c8ea 92bd
00000210: 6a90 4cbe a1fc 873e 9217 943e d797 f03d
00000220: 9be5 58bd 76ce 793e 46f7 363e 00bf c6bd
00000230: afa7 59be eb39 b2bd 0573 393e 0185 2c3c
00000240: 27a1 303e 0490 8bbe 2dfb 6ebe 867f 6fbe
00000250: dd26 5b3e ae63 04be 096e de3d 51e0 6b3e
00000260: 3bd2 1fbe 02d1 93be 3d79 b23d 1b24 403e
00000270: 5a3a 4ebe a23e 3bbe 43d1 60bd c9fb 96be
00000280: 1f26 24bd 1748 f43d b05f 17bd ecbf 473d
00000290: 66c1 06be 2259 a93d feb6 133e 75d2 093c
000002a0: f95a 3e3e 8096 9bbd fd0c 4b3e 60cd 2a3d
000002b0: 67e2 a63d 643a d33d b65f 20be e8e6 7cbe
000002c0: e224 03be 2d74 3a3b 1f9e f0bc 07b6 073c
000002d0: 8ed1 15bd 1d71 a13c 7828 283e 5c4b 37be
000002e0: 1339 0a3d eb0c e63d 442e 1dbe 630c 123e
000002f0: 77f9 4b3e d3ba ef3d 3dc4 013e de61 e23d
00000300: 71d4 723d 4958 4c3e b8a8 47be 8892 1abe
00000310: f4c2 5a3e 0e10 083e f4d5 6a3e 13ab 4abe
00000320: f037 79be 6bc1 b13c 6cf6 3ebe 2c86 c8bd
00000330: b8e2 693e 08be 8c3d 1414 6c3d a5d3 a93d
00000340: 97bd 8fbc e80b 133e 3879 3fbc 2dd4 cebb
00000350: a318 263e 9fee 893e 7649 9c3e 0ce6 39be
00000360: 4d07 91bd dd71 363e 5bac 8abd 3e45 d4bd
00000370: ee34 133e 9997 dabd 5be8 113b 6903 fbbc
00000380: 16df 013d 0496 7e3e 9899 2c3e 6636 323d
00000390: 284a 5b3e 845e a93d 6c07 523e e9fc 19be
000003a0: 163e bc3d 0af7 513e a0d5 f63b 34d9 643e
000003b0: c227 3f3d 2cdd 5d3e d61d 9a3b 52e3 f33d
000003c0: c99b 5cbd 8af9 dd3d c265 1c3e d9a4 a1bc
000003d0: 0b7d 3d3e 2f63 ae3e d08e ce3d 1189 39be
000003e0: 6b34 c83d 2601 8abc 664c 303e c0fd 883c
000003f0: d40b 953e bcf7 823d c250 473c 3a59 133e
-0.09292129 0.14650483 -0.115801774 0.15421091 -0.0035721052 -0.07103631 -0.22055514 -0.15177459
-0.11265357 -0.058388855 0.064289674 0.21083964 0.21069284 0.11945214 -0.21188253 -0.091791175
0.16798522 -0.17281806 0.008077479 0.22343813 -0.017638063 -0.004505 -0.02322638 -0.20131198
-0.021029536 -0.2323123 0.1421821 0.031153446 0.012164662 -0.008391161 -0.13219625 -0.055534113
-0.15791264 -0.06616298 0.17519574 0.013492105 0.0138879055 -0.021530122 0.055917975 0.09223703
0.19893254 -0.20488454 0.19334498 -0.21102929 -0.06756433 -0.029150417 0.0835259 -0.06663306
0.23247015 0.025068471 -0.10920918 0.059247654 0.21316154 0.043476377 0.24705057 0.20535521
-0.007560366 0.17033705 0.13087694 0.12897731 -0.18013765 -0.008345455 -0.17624934 -0.12257156
0.20084311 0.110622965 -0.058357783 0.1583398 0.23883983 0.075064145 0.14573747 -0.083988495
0.05032941 0.06758718 -0.19134586 0.041692328 0.24685626 0.029946266 -0.25910375 -0.044824965
0.0699963 0.059343934 0.13969347 0.18480065 -0.1448785 0.0318797 -0.12017434 0.2150866
0.06366981 0.19501394 0.0120968735 0.014134405 -0.21621676 0.15723386 0.013023815 -0.13118322
-0.14972505 -0.18761048 0.16196895 0.14965431 0.014161633 0.098230496 0.19054092 0.16114357
0.17912248 0.08121432 0.2411261 -0.29080003 0.03198812 0.12400043 -0.16506463 0.14152984
0.068148874 0.08844095 0.18904501 0.12304771 0.2512964 0.28036025 -0.34054166 0.071330585
-0.21839446 -0.16011459 -0.21685271 0.09834286 0.20753793 -0.20902465 -0.06988584 -0.016919347
0.039640736 -0.028975395 0.06304666 -0.07173687 -0.19976965 0.26559928 0.28924233 0.11747711
-0.052953344 0.24395165 0.17867765 -0.09704399 -0.21255372 -0.08702453 0.18110283 0.0105297575
0.17248975 -0.27258313 -0.23338003 -0.2338849 0.21401544 -0.1292865 0.10860831 0.23034789
-0.1560754 -0.28870398 0.087145306 0.18763773 -0.20139447 -0.18285611 -0.054887068 -0.29488972
-0.040075418 0.119278125 -0.03695649 0.048767015 -0.13159713 0.08268954 0.14425275 0.008411993
0.18589391 -0.07597065 0.19829173 0.041699767 0.081486516 0.103138715 -0.15661511 -0.24697459
-0.12807038 0.0028450594 -0.029372273 0.008283145 -0.0365768 0.019707257 0.16421688 -0.17899841
0.033745836 0.11232933 -0.1534968 0.14262538 0.19919382 0.11705556 0.12672515 0.11053823
0.05928463 0.19955553 -0.19497955 -0.1509496 0.21363431 0.13287374 0.22933179 -0.19791822
-0.24337745 0.021698674 -0.1864869 -0.09791216 0.22840393 0.06872183 0.057636335 0.08292321
-0.017546458 0.1436001 -0.011686616 -0.0063119144 0.16220336 0.26939866 0.30524796 -0.18154162
-0.07081471 0.17816873 -0.067711554 -0.103647694 0.1437566 -0.10673446 0.0022263739 -0.030641275
0.031706892 0.24861914 0.16855466 0.04350891 0.21415007 0.082699805 0.20510644 -0.15037884
0.091915295 0.20504394 0.0075327903 0.22348481 0.046668775 0.21666402 0.0047032638 0.11908592
-0.053859506 0.108386114 0.15273193 -0.019731926 0.18504731 0.34060046 0.10085833 -0.18118693
0.09775623 -0.01684625 0.17216644 0.01672256 0.29110587 0.06394908 0.01216525 0.14389506

bias_ih_l0 f4 [64]
00000000: ba50 d83b 8373 9cbd e358 883e 8233 03be
00000010: b418 a5b7 0c09 473e c888 bebd 212e 0e3e
00000020: e934 44be c98e fb3d 6804 6c3e 9331 88bd
00000030: ce53 cebb 0a50 8e3e dbc1 313e 0905 143e
00000040: 7d86 a53d a6ef 30be 940a 81be e89e 843e
00000050: 136d 04be 149f 2f3e 3543 483d 9368 063e
00000060: 2fce 72be 188c b7bd f009 54be 777f d5bd
00000070: 5c2d 7ebb a58e 573e 314c e2bb d440 8abe
00000080: 117b 8abe 115d c63d 07eb 013e 23ff 0d3d
00000090: 11be ea3d c717 473e 38ed 9e3d 729e 99be
000000a0: 0f9a 65be 4cf2 7b3e ce49 efbd 4b32 753e
000000b0: e7d8 483e cff1 96bd d175 253e eba1 1f3e
000000c0: 7c32 273e 8f2c 42be 23a4 873e c4c9 6fbe
000000d0: 3b62 ce3c 6322 1cbe 135e e7bd 99f8 053e
000000e0: 2bda f63d ba9a 69be 728a 5d3d 22ae 80ba
000000f0: 6b86 f23d ae40 173e a603 8f3e 6f9f 893e
0.00660142 -0.076392196 0.26630315 -0.12812617 -1.9681036e-05 0.19437045 -0.09303433 0.13884784
-0.19160809 0.122830935 0.23048556 -0.066500805 -0.0062966114 0.2779544 0.17359106 0.14455046
0.08082292 -0.17278919 -0.25203383 0.25902486 -0.12932234 0.17150527 0.04889222 0.1312583
-0.23711465 -0.08962268 -0.20706916 -0.104247026 -0.003878436 0.21050508 -0.0069060554 -0.27002585
-0.27047017 0.0968572 0.12687312 0.034667145 0.114620335 0.19442664 0.0776009 -0.30003697
-0.2242205 0.24604148 -0.11683999 0.23944966 0.19613992 -0.0737034 0.16158225 0.1558911
0.16327852 -0.1896231 0.26492414 -0.23416811 0.025193324 -0.15247492 -0.1129724 0.13083114
0.12053331 -0.2281293 0.05408711 -0.0009817521 0.118420444 0.14770767 0.2793247 0.2687945

bias_hh_l0 f4 [64]
00000000: 7e52 263d fb24 273e 76e5 823e d6d8 1b3e
00000010: 8c74 9bbd 4e20 3cbe 622f 8fbe 80c0 21be
00000020: d135 48bd b549 3e3e 497d f03c 0781 1ebe
00000030: 4df4 27bc d398 a5bd 0733 49be 448f 0dbc
00000040: c12e 003e 5c5b 4dbd 9cbb 55bd 795d 2ebe
00000050: 418b b13d c097 49bd c0a0 333e 70c6 263d
00000060: 6bda 313e 63f4 10be eede d23c 87cf 783d
00000070: 9932 5bbe 0249 e03d 2aa6 70be bec3 90be
00000080: 8950 5bbe 6571 193d 86f0 743d e533 ad3c
00000090: c5c8 7e3e d1ee 403d d823 8fbe 55a0 5ebd
000000a0: b5aa 3a3e 70ef b5bd 7918 0dbe 834c 683e
000000b0: 0c9b e43d 0d1e 20bd 5704 45be 5bf6 81be
000000c0: c663 b5bd 3e0f b83d 119d 073e 4059 343d
000000d0: 47ab 9ebd 3109 593e b454 d13d 8e7e 41bd
000000e0: 10db 5bbe 8206 793e a4fa 09be a5db 99bd
000000f0: 0d6e 08bd 28fd 67bb 4ee2 25be c738 4fbd
0.040606014 0.163227 0.2556569 0.15219435 -0.07590589 -0.18371698 -0.27965838 -0.15796089
-0.04887945 0.18582805 0.029356616 -0.15478908 -0.010251117 -0.080857895 -0.19648372 -0.008640114
0.12517835 -0.050135955 -0.05218087 -0.17027844 0.08669139 -0.049216986 0.1754179 0.04071659
0.17368476 -0.14155726 0.025741067 0.06074479 -0.2140602 0.10951425 -0.23500887 -0.2827434
-0.2141744 0.037461657 0.059799694 0.02114291 0.24881275 0.047102753 -0.27957034 -0.054352123
0.18229182 -0.0888356 -0.13778867 0.22685437 0.11162385 -0.03909116 -0.19239937 -0.25383267
-0.08856921 0.08987282 0.1324351 0.044030428 -0.07747512 0.21194912 0.10221234 -0.047239833
-0.21470284 0.24318889 -0.13474518 -0.07512597 -0.033308078 -0.0035398696 -0.1619961 -0.050591256
