nba/src/artifacts/nba_lstm_predictor_v2/lstm_model_branched.pth (torch, 375051 bytes, 48 tensors)

weight f4 [2500, 32]
0.33311242 0.18007104 -1.0018489 0.83629924 -0.17391993 -0.23932497 -1.1867356 -0.25758615
2.5778468 -1.18856 0.76005024 0.08624066 -0.9690878 0.35895026 0.17702852 -1.7783855
0.014833842 0.24396665 -0.11352846 -1.0627601 -0.07798333 0.9050723 1.0031219 1.742166
0.27914447 -0.44065824 0.8266154 0.77989507 0.7229267 -2.4316206 1.2950042 0.075918935
-0.6726663 0.014765261 1.0207138 0.41415218 -0.6033388 1.8046743 0.50500804 0.1966046
-0.12502496 1.6231505 0.37513158 0.61483693 -0.9753407 0.21769719 0.34915364 -1.3166122
-0.45129701 -0.32502618 0.25555298 -1.0860276 0.3768247 -0.108215064 -0.2712443 -1.1119753
0.95659614 -0.6512559 0.26507095 -0.23768333 1.4184092 -1.2403015 -0.004775954 -0.35981902
0.26475435 0.0724093 1.2178686 0.9315107 -1.6057018 -0.32438016 1.8132889 1.2022319
0.21925135 -1.464139 1.7204087 -0.07826102 1.163671 0.37426907 0.79085445 0.4175705
1.5007262 0.30001587 -1.3308496 -0.7567861 -1.4512843 -0.03644502 1.3032062 -0.5291492
-0.83879393 -1.8218627 -1.6050754 1.3121933 -1.4849238 -0.80162024 -1.2476206 0.27930793
-0.81762487 -0.21954973 -0.1917091 1.1041095 0.3595284 -1.3785936 -0.65958935 -2.1605687
-0.8097645 0.33755776 0.62372535 0.22793679 0.2544075 0.6556101 -0.009890218 -0.36935794
1.2545362 -0.471661 -0.8346947 1.1221077 -2.0722306 1.7626023 -0.9493091 -0.38538873
-1.4653916 -1.003997 -0.52007604 -1.4061906 1.0809222 -2.9777684 -1.3424151 -0.7030161
-0.36758375 1.1326791 0.2472075 -2.6234593 0.25627726 0.40610248 2.452331 1.2280988
0.95448744 -1.4300779 0.8669063 0.97408974 -0.7894844 0.064703286 -2.1256692 0.24300846
-1.5899414 -1.3897022 -0.9672397 1.5223125 -0.5396915 1.539579 -0.09221249 0.049536925
0.0999584 -0.7107027 0.31080532 0.6976361 -0.13609532 -1.5471143 -1.4894426 -1.0586054
-1.0583514 -0.40312734 -0.11128796 -2.2407753 1.310519 0.022030398 1.045715 -0.83362883
0.3581762 -0.10435676 0.030173436 -0.7437633 1.3514863 -0.97291166 0.42147747 -1.263517
-0.7643791 0.099173166 -1.3306746 0.4633131 -0.963352 -0.8528632 0.42364806 0.6764776
-0.7098735 0.34471497 1.3625085 1.549548 0.19662303 -0.02970092 -1.7563393 -1.0998648
-1.3654753 0.48742652 -0.53850144 -0.25475767 -1.8977464 0.5821788 -0.30942717 -0.53915364
0.06822557 -1.0651019 0.33615002 1.3397262 -1.2003634 -0.7589604 -0.25023273 -0.3959485
1.4859445 -1.1999458 -1.1554015 1.1347121 -0.069579795 0.1723684 0.2026801 0.009834885
-1.2712091 -0.75083137 1.0025615 1.6194493 -0.42928284 -0.777261 0.25489005 -0.21647452
1.0826867 0.8010813 -0.1947767 0.32796934 0.48658025 -1.6696395 -0.43284658 0.310376
-0.12321708 -0.76188165 -2.5471632 -1.9198704 1.0027786 0.20862418 -0.4581523 -0.65380776
1.9550282 -1.3963823 0.66604793 -0.55394775 0.052040767 0.3069997 1.3102592 -1.8367932
-0.9356061 -0.22562487 1.0493408 0.101647675 0.7794421 -0.577343 0.92511916 -0.1033667
00000000: b68d aa3e 8b64 383e 963c 80bf b517 563f
00000010: 1118 32be 9b11 75be f4e6 97bf 55e2 83be
00000020: 71fb 2440 bc22 98bf a792 423f f19e b03d
00000030: 2316 78bf 54c8 b73e f746 353e 23a2 e3bf
00000040: a509 733c 65d2 793e 9c81 e8bd 8608 88bf
00000050: b9b5 9fbd d1b2 673f 4c66 803f 4cff de3f
00000060: 06ec 8e3e f59d e1be 119d 533f 34a7 473f
00000070: b911 393f ac9f 1bc0 b3c2 a53f 637b 9b3d
00000080: dc33 2cbf fee9 713c c0a6 823f c10b d43e
00000090: 6974 1abf 91ff e63f 3548 013f b752 493e
000000a0: 8b06 00be 65c3 cf3f 3f11 c03e f465 1d3f
000000b0: eeaf 79bf 03ec 5e3e 44c4 b23e c086 a8bf
000000c0: 6710 e7be d569 a6be d7d7 823e f402 8bbf
000000d0: 2bef c03e dc9f ddbd 88e0 8abe 3555 8ebf
000000e0: 7ce3 743f b5b8 26bf 61b7 873e 4263 73be
000000f0: 6f8e b53f 33c2 9ebf 9b7f 9cbb 333a b8be
00000100: e28d 873e 544b 943d 1ee3 9b3f 7c77 6e3f
00000110: a387 cdbf 2815 a6be da19 e83f bce2 993f
00000120: 6d83 603e e868 bbbf 5a36 dc3f 5047 a0bd
00000130: 2cf3 943f 32a0 bf3e 7075 4a3f cdcb d53e
00000140: cc17 c03f ae9b 993e 4859 aabf bcbc 41bf
00000150: afc3 b9bf 6047 15bd 76cf a63f 5276 07bf
00000160: 33bb 56bf cc32 e9bf 1c73 cdbf f3f5 a73f
00000170: fc11 bebf fc36 4dbf 08b2 9fbf 7301 8f3e
00000180: dd4f 51bf a5d1 60be 644f 44be 7653 8d3f
00000190: 1b14 b83e c175 b0bf d9da 28bf c246 0ac0
000001a0: ba4c 4fbf 5fd4 ac3e 77ac 1f3f 4368 693e
000001b0: b341 823e 10d6 273f 950a 22bc 7c1c bdbe
000001c0: a494 a03f 8d7d f1be 8dae 55bf 3aa1 8f3f
000001d0: 6d9f 04c0 f49c e13f ec05 73bf ac51 c5be
000001e0: f491 bbbf f982 80bf b423 05bf 0efe b3bf
000001f0: a95b 8a3f c293 3ec0 42d4 abbf ddf8 33bf
00000200: f033 bcbe a1fb 903f f623 7d3e c2e6 27c0
00000210: c636 833e aaec cf3e fef2 1c40 5732 9d3f
00000220: 4a59 743f cb0c b7bf 92ed 5d3f f25d 793f
00000230: a61b 4abf 2883 843d f70a 08c0 36d7 783e
00000240: 3383 cbbf c3e1 b1bf 059d 77bf 23db c23f
00000250: 3929 0abf ed10 c53f e7d9 bcbd 3be7 4a3d
00000260: fdb6 cc3d 9df0 35bf e021 9f3e 4898 323f
00000270: 925c 0bbe d707 c6bf 0ea6 bebf 6280 87bf
00000280: 0f78 87bf b566 cebe f1ea e3bd dd68 0fc0
00000290: 16bf a73f 1879 b43c fdd9 853f b368 55bf
000002a0: df62 b73e ffb8 d5bd 482e f73c 4667 3ebf
000002b0: 81fd ac3f bd10 79bf e5cb d73e edba a1bf
000002c0: 59ae 43bf 4d1b cb3d 8c53 aabf 6037 ed3e
000002d0: 3d9e 76bf 3e55 5abf 66e8 d83e a32d 2d3f
000002e0: 45ba 35bf 7b7e b03e ae66 ae3f 9757 c63f
000002f0: 8c57 493e 584f f3bc bacf e0bf 5fc8 8cbf
00000300: e5c7 aebf f88f f93e 3bdb 09bf 996f 82be
00000310: 5be9 f2bf ab09 153f 3d6d 9ebe f905 0abf
00000320: d9b9 8b3d 4255 88bf db1b ac3e 267c ab3f
00000330: 82a5 99bf 3b4b 42bf 811e 80be c3b9 cabe
00000340: 6e33 be3f d397 99bf 32e4 93bf 3f3e 913f
00000350: da7f 8ebd 5881 303e 5f8b 4f3e 7f22 213c
00000360: fbb6 a2bf 7c36 40bf ef53 803f 1d4a cf3f
00000370: f6ca dbbe 94fa 46bf f380 823e 7fab 5dbe
00000380: 7a95 8a3f aa13 4d3f 8b73 47be 99eb a73e
00000390: 0c21 f93e bfb6 d5bf 119e ddbe 9ae9 9e3e
000003a0: 3d59 fcbd ad0a 43bf b904 23c0 50be f5bf
000003b0: 0d5b 803f 94a1 553e f092 eabe f25f 27bf
000003c0: 5d3e fa3f a8bc b2bf 1e82 2a3f 85cf 0dbf
000003d0: b328 553d 112f 9d3e 93b6 a73f 0a1c ebbf
000003e0: e283 6fbf 350a 67be cd50 863f a82c d03d
000003f0: 8489 473f c0cc 13bf 9cd4 6c3f ecb1 d3bd

weight f4 [16, 60]
-0.042105675 0.054799363 0.24050467 0.13121058 0.058359284 -0.101165555 0.12625673 -0.012036418
0.06165787 0.07009128 -0.03809688 0.026814012 0.030068167 0.11803085 0.20901124 0.09890826
0.13304226 0.38984472 0.09408301 -0.12595569 0.0907594 0.20527074 0.12743336 0.076617345
0.1257923 0.030936347 -0.23451205 0.042051077 -0.0013812961 -0.07352124 0.08388129 -0.0155334985
-0.025408918 -0.054652568 0.10880205 -0.04541439 -0.07436131 0.007583479 0.054947257 -0.020444544
0.1055271 0.008054616 -0.054165438 0.04156658 0.10258476 0.10455104 -0.026878554 0.0068286466
0.03532582 -0.013743056 0.08308213 -0.05857778 -0.052103534 -0.1242808 0.03151973 0.02887774
-0.051350422 0.03245267 0.057271227 -0.0046371394 -0.070712015 -0.060331583 -0.03812053 -0.10824992
0.07560085 -0.10979908 0.024912653 0.0036321033 0.09766331 -0.15550326 -0.07271119 -0.10073207
0.13904661 0.10594024 0.2692679 0.107972614 0.048641186 -0.0048242104 0.24443452 0.07957405
0.14131738 -0.07768661 -0.12575221 -0.08064008 -0.12991522 0.111883976 -0.34162843 -0.10281862
-0.087995514 -0.05609256 -0.09828928 -0.12658931 -0.058842704 -0.106763735 -0.08323048 -0.012527413
-0.088465035 -0.055943355 0.101441815 -0.024693659 -0.06460992 -0.12397696 -0.037366726 0.030298637
-0.07023498 0.1074641 0.10148656 -0.0061243265 0.030164273 0.07915213 -0.07172604 -0.08404974
0.038628306 -0.06468768 -0.08984359 -0.05520277 -0.055100624 0.096886896 0.015884193 0.08402126
0.08254692 0.07165203 0.19259372 0.12899491 -0.08395557 -0.023605263 -0.027376635 -0.25911513
0.11633284 0.02786849 -0.027955703 -0.028796172 0.03426551 0.04407957 -0.11993373 -0.015787967
0.14366558 0.06251737 -0.34527776 -0.12908757 -0.0028556767 0.10049822 0.10889004 -0.12439549
0.14111885 0.0684957 0.11132661 0.07928588 -0.07835083 -0.08367296 0.040480506 -0.06738319
-0.015998447 0.0123515995 -0.06729304 0.022939118 0.005572597 0.07719283 0.0517805 0.107852876
0.051418252 -0.12146646 -0.008505471 0.011833658 0.024205487 0.08467693 0.05027761 -0.03563248
0.053701334 0.112255916 0.08127661 0.1012736 -0.10808548 -0.12458245 -0.070357084 0.006819896
-0.06584071 0.08124023 0.071544394 0.011590319 -0.094356775 0.015354129 0.19964133 -0.08192128
-0.031163672 0.087821305 0.19219759 -0.30777153 0.12444311 -0.026498705 0.09856112 -0.09607739
0.013905698 -0.01641555 -0.07968838 0.0969322 0.14374006 0.12195924 -0.21862954 -0.4429444
-0.08366812 0.105665065 0.07002538 -0.08277847 -0.02817092 -0.0026769165 -0.06002702 0.028645363
0.014876597 0.0674626 -0.07691083 -0.08922195 -0.026104888 -0.09733161 0.06133137 -0.03774469
-0.047459207 -0.024679204 0.018542595 -0.003620368 -0.12506717 -0.030021943 -0.002271584 -0.053468328
-0.074974194 -0.028301354 0.09528603 -0.100318745 0.052981116 0.047898706 0.053660788 0.0009985638
0.039368667 0.06584048 0.0029274612 0.021438956 0.066261426 0.011325993 0.006146398 0.05350549
-0.052815784 -0.050586812 -0.009380183 -0.035056785 -0.07372192 -0.13856886 0.13911706 0.11252828
-0.16892281 0.06616767 -0.038181514 -0.06818372 0.118362986 0.09253104 0.15813598 0.10278877
00000000: 0077 2cbd 4c75 603d db46 763e 115c 063e
00000010: 250a 6f3d e32f cfbd 7249 013e 6534 45bc
00000020: f68c 7c3d 048c 8f3d 790b 1cbd 0fa9 db3c
00000030: 8451 f63c 29ba f13d 0b07 563e 6a90 ca3d
00000040: 3b3c 083e ba99 c73e 98ae c03d 87fa 00be
00000050: 10e0 b93d 7e32 523e e47d 023e 8ee9 9c3d
00000060: b2cf 003e 396e fd3c ed23 70be c03d 2c3d
00000070: 9b0c b5ba 4e92 96bd f4c9 ab3d 3780 7ebc
00000080: 5d26 d0bc 5fdb 5fbd 9cd3 de3d 7004 3abd
00000090: be4a 98bd d57e f83b 6010 613d 517b a7bc
000000a0: 981e d83d 82f7 033c 94dc 5dbd b841 2a3d
000000b0: f517 d23d db1e d63d 6a30 dcbc d7c2 df3b
000000c0: cfb1 103d 8e2a 61bc f726 aa3d 41ef 6fbd
000000d0: 846a 55bd ef86 febd d51a 013d 0391 ec3c
000000e0: d254 52bd 17ed 043d 3c95 6a3d 25f3 97bb
000000f0: 76d1 90bd 401e 77bd 4624 1cbd 22b2 ddbd
00000100: 9ed4 9a3d 57de e0bd 9f15 cc3c 9508 6e3b
00000110: b403 c83d 3f3c 1fbe 9be9 94bd 9e4c cebd
00000120: 3c62 0e3e 32f7 d83d 7bdd 893e bf20 dd3d
00000130: fb3b 473d 6914 9ebb 0b4d 7a3e b8f7 a23d
00000140: 81b5 103e 281a 9fbd 30c5 00be a026 a5bd
00000150: 7f08 05be 6d23 e53d ece9 aebe 9292 d2bd
00000160: fe36 b4bd 50c1 65bd e44b c9bd a1a0 01be
00000170: 0c05 71bd f2a6 dabd be74 aabd c73f 4dbc
00000180: 282d b5bd dc24 65bd bac0 cf3d 5b4a cabc
00000190: 3552 84bd a2e7 fdbd da0d 19bd d934 f83c
000001a0: 5bd7 8fbd 2316 dc3d 30d8 cf3d 93ae c8bb
000001b0: 111b f73c 831a a23d 1ae5 92bd 4522 acbd
000001c0: b738 1e3d f97a 84bd ebff b7bd 4d1c 62bd
000001d0: 31b1 61bd a36c c63d 911f 823c 5713 ac3d
000001e0: 5c0e a93d 4dbe 923d 4a37 453e 3e17 043e
000001f0: e6f0 abbd d35f c1bc f744 e0bc bdaa 84be
00000200: e93f ee3d 764c e43c 5c03 e5bc f3e5 ebbc
00000210: fe59 0c3d c78c 343d d19f f5bd c455 81bc
00000220: 121d 133e 1b09 803d 3fc8 b0be 882f 04be
00000230: 4e26 3bbb 03d2 cd3d be01 df3d 10c3 febd
00000240: 7681 103e 7947 8c3d 35ff e33d a360 a23d
00000250: 6676 a0bd bb5c abbd e3ce 253d 3300 8abd
00000260: 2d0f 83bc 5d5e 4a3c efd0 89bd d1ea bb3c
00000270: 559a b63b 4617 9e3d ca17 543d f8e1 dc3d
00000280: f29b 523d 68c3 f8bd 885a 0bbc f6e1 413c
00000290: 964a c63c 196b ad3d e5ef 4d3d 5df3 11bd
000002a0: eef5 5b3d 6ee6 e53d 5a74 a63d 8868 cf3d
000002b0: ec5b ddbd 1525 ffbd 6017 90bd 6f79 df3b
000002c0: 7fd7 86bd 4761 a63d de85 923d 52e5 3d3c
000002d0: 203e c1bd e28f 7b3c c76e 4c3e 58c6 a7bd
000002e0: f54a ffbc a8db b33d 72cf 443e 3b94 9dbe
000002f0: 07dc fe3d d013 d9bc 6ada c93d 39c4 c4bd
00000300: bad4 633c e779 86bc a933 a3bd 6484 c63d
00000310: 9830 133e c4c5 f93d 6ce0 5fbe 9cc9 e2be
00000320: 315a abbd ed66 d83d 7769 8f3d c287 a9bd
00000330: b4c6 e6bc 356f 2fbb e4de 75bd aea9 ea3c
00000340: f8bc 733c d529 8a3d 6d83 9dbd ffb9 b6bd
00000350: ebd9 d5bc cc55 c7bd 9a36 7b3d 2d9a 1abd
00000360: 9664 42bd 0b2c cabc a4e6 973c b243 6dbb
00000370: 9c11 00be 94f0 f5bc dbde 14bb 9b01 5bbd
00000380: 128c 99bd 3ed8 e7bc 5225 c33d ea73 cdbd
00000390: ba02 593d 6f31 443d 6acb 5b3d 3ee2 823a
000003a0: 0a41 213d 60d7 863d a6da 3f3b c0a0 af3c
000003b0: 12b4 873d a890 393c b967 c93b 9328 5b3d
000003c0: 5d55 58bd 1e34 4fbd 57af 19bc b497 0fbd
000003d0: 85fb 96bd ffe4 0dbe b474 0e3e 3a75 e63d
000003e0: 1afa 2cbe ea82 873d 3864 1cbd e8a3 8bbd
000003f0: 4b68 f23d ea80 bd3d 66ee 213e eb82 d23d

bias f4 [16]
-0.057338603 0.067993425 0.0120088225 0.019398501 -0.061199065 0.13701107 0.053536493 -0.17843454
-0.048974097 -0.011555391 0.12713902 -0.0724838 0.14964388 0.089471854 -0.10917277 0.1914396
00000000: e2db 6abd 2340 8b3d a7c0 443c 9be9 9e3c
00000010: dfab 7abd a14c 0c3e 1549 5b3d 8bb7 36be
00000020: 1099 48bd d352 3dbc bb30 023e 6372 94bd
00000030: 3f3c 193e 053d b73d f995 dfbd be08 443e

weight_ih_l0 f4 [64, 16]
-0.22517492 -0.16494612 0.15233314 -0.17617077 -0.12511845 0.08915028 0.11550649 0.1478374
0.27221677 -0.17382468 0.094505705 -0.22849509 0.09520074 -0.17304029 0.07372619 -0.05503269
0.032652814 -0.1480388 0.2504965 0.16607863 -0.21955353 -0.00881992 0.03817054 -0.20716147
0.1208786 -0.010090785 0.1886661 0.16668673 0.17624669 -0.050950978 -0.040497333 0.08802974
0.19021381 -0.08491022 0.17836127 0.120381065 -0.14686541 0.21107733 0.09027166 -0.17228682
-0.12077213 -0.1635011 0.082525656 0.0029950559 -0.07085839 -0.08813453 0.09836731 -0.20515011
0.03202871 0.114279225 -0.034443315 -0.15017845 -0.038315132 0.04548315 -0.247793 0.18971278
0.24632253 0.013134556 -0.0010291947 -0.1896953 0.03206512 -0.020981858 0.047924556 -0.117711075
-0.07897523 -0.10245773 0.19801801 0.24190485 -0.03207139 0.04477477 -0.101922356 -0.10092559
-0.19505279 0.0510281 -0.08318961 -0.1345751 0.14303984 -0.20210364 -0.085227974 0.1156147
0.10613891 -0.04357555 -0.1522721 -0.0029557128 0.04741114 -0.094750665 0.09067328 0.15825982
0.28638703 0.037938554 -0.12480609 -0.23468587 -0.10469857 0.1412336 0.118030995 -0.01663023
0.15192236 0.16816972 -0.056207314 -0.2763089 0.08433201 -0.09479502 -0.28718385 -0.13876028
0.076524384 -0.028722476 0.27371827 0.25277963 -0.052532665 -0.22106579 -0.11254181 -0.17414246
-0.14125818 -0.10615803 0.17955329 0.20340286 -0.112361774 0.15162744 -0.25475788 -0.14758027
-0.16563098 0.027591147 0.14933497 0.074957885 0.30596164 -0.20426492 0.0829074 0.2972602
0.21904156 -0.13491796 0.110170074 -0.09010614 0.0022264135 0.1466677 -0.12624861 -0.07699736
0.15089776 -0.009625407 0.1780521 0.25922257 0.2060603 0.24899922 -0.22381952 0.1497817
0.0868796 0.0827937 0.10473014 0.0312929 0.25361538 0.18286847 -0.22913368 -0.16942015
-0.16711529 -0.0010111495 0.26129395 0.17526332 0.20395686 -0.20986201 -0.24423273 0.02753643
0.18775278 0.006502227 -0.19084059 0.12691693 0.09891613 -0.092065565 -0.04321708 -0.18272443
-0.017914426 0.16658711 -0.09977001 0.1933418 0.03345387 -0.20463432 0.08203481 -0.03121004
0.12923315 -0.015760265 -0.08876698 0.12654853 -0.1677491 0.14025894 -0.32831195 0.119240515
0.075306356 0.10138687 0.22834328 0.26494837 0.0025122252 0.12597317 -0.093777455 -0.19666056
0.0337838 -0.19484977 -0.12257637 0.2348359 -0.07194918 -0.12685998 0.16739225 -0.2563663
-0.034833677 -0.19424725 0.01964824 0.17189518 0.068887316 0.022180652 -0.12738872 0.19639537
0.27195 0.0033332694 -0.034397893 0.028111475 -0.20966054 0.063540004 0.0686776 0.08081549
0.003327173 0.05646911 0.11352084 0.15230037 0.03379926 0.17316197 0.2437243 0.012086447
-0.19172208 0.0013369294 0.18672653 -0.21814685 -0.1926501 -0.0598284 0.10866335 0.0151190525
0.1903827 -0.02390545 -0.01914997 -0.017378364 -0.18089046 0.15449136 0.030301316 0.012418571
-0.004786205 0.15733926 -0.041879997 -0.044558734 0.062098987 -0.21551993 -0.3397941 0.042889062
-0.17439629 0.10951028 0.15862697 0.19902308 0.15891246 -0.22735398 -0.08553625 0.15855701
00000000: 4194 66be a3e7 28be 38fd 1b3e 1c66 34be
00000010: 0d1f 00be 6c94 b63d ab8e ec3d b062 173e
00000020: ff5f 8b3e 19ff 31be 358c c13d 9efa 69be
00000030: 9bf8 c23d 7931 31be c2fd 963d f569 61bd
00000040: f5be 053d 7c97 17be 1441 803e 8410 2a3e
00000050: a4d2 60be 6d81 10bc b658 1c3d 2322 54be
00000060: 338f f73d d253 25bc b031 413e edaf 2a3e
00000070: 037a 343e f9b1 50bd 88e0 25bd f048 b43d
00000080: 69c7 423e 69e5 adbd 56a4 363e 598a f63d
00000090: e363 16be a824 583e 59e0 b83d f56b 30be
000000a0: 6157 f7bd d56c 27be 3603 a93d b348 443b
000000b0: 341e 91bd e07f b4bd cd74 c93d df12 52be
000000c0: 8930 033d 3a0b ea3d 6f14 0dbd 61c8 19be
000000d0: 54f0 1cbd 8a4c 3a3d 73bd 7dbe 1144 423e
000000e0: f93b 7c3e 5232 573c 0be6 86ba 7c3f 42be
000000f0: b756 033d 25e2 abbc 8a4c 443d 8112 f1bd
00000100: c4bd a1bd 5cd5 d1bd 3cc5 4a3e e8b5 773e
00000110: 4a5d 03bd c065 373d abbc d0bd 13b2 cebd
00000120: ebbb 47be d702 513d 505f aabd 0ece 09be
00000130: 0979 123e 42f4 4ebe 018c aebd 66c7 ec3d
00000140: 5b5f d93d 477c 32bd 38ed 1bbe a2b4 41bb
00000150: 2f32 423d a30c c2bd eab2 b93d dd0e 223e
00000160: 52a1 923e 7565 1b3d 569a ffbd 7e51 70be
00000170: 346c d6bd 8a9f 103e 3cba f13d 1f3c 88bc
00000180: 8991 1b3e af34 2c3e a439 66bd 5c78 8dbe
00000190: 43b6 ac3d e423 c2bd c309 93be 2d17 0ebe
000001a0: d1b8 9c3d 664b ebbc cd24 8c3e 556c 813e
000001b0: 7e2c 57bd 125f 62be 527c e6bd 6752 32be
000001c0: fca5 10be 6269 d9bd d1dc 373e d748 503e
000001d0: ee1d e6bd 3944 1b3e a06f 82be 481f 17be
000001e0: 2b9b 29be d406 e23c 44eb 183e 8583 993d
000001f0: 01a7 9c3e d32a 51be 5bcb a93d 7d32 983e
00000200: 6e4c 603e ef27 0abe d9a0 e13d 9189 b8bd
00000210: 05e9 113b 0f30 163e 5147 01be cbb0 9dbd
00000220: f184 1a3e e2b3 1dbc 4a53 363e d2b8 843e
00000230: 7901 533e a7f9 7e3e f230 65be 6060 193e
00000240: efed b13d be8f a93d c17c d63d fc2c 003d
00000250: e0d9 813e df41 3b3e 05a2 6abe 7a7c 2dbe
00000260: 4520 2bbe 8c88 84ba 52c8 853e 3a78 333e
00000270: 11da 503e 11e6 56be 2518 7abe 1494 e13c
00000280: 4442 403e a210 d53b b76b 43be 83f6 013e
00000290: 8a94 ca3d df8c bcbd 6504 31bd 1d1c 3bbe
000002a0: 46c1 92bc d095 2a3e 3854 ccbd 65fb 453e
000002b0: ed06 093d a98b 51be de01 a83d 33ac ffbc
000002c0: b255 043e ac1b 81bc 76cb b5bd f095 013e
000002d0: 6cc6 2bbe 0aa0 0f3e 8118 a8be 5f34 f43d
000002e0: 383a 9a3d eba3 cf3d d2d2 693e 50a7 873e
000002f0: 25a4 243b 1cff 003e 650e c0bd 6361 49be
00000300: e260 0a3d b386 47be 5209 fbbd d278 703e
00000310: 175a 93bd 95e7 01be e068 2b3e 7242 83be
00000320: c2ad 0ebd c0e8 46be 59f5 a03c 4a05 303e
00000330: cb14 8d3d 33b4 b53c 3072 02be de1b 493e
00000340: 083d 8b3e fb72 5a3b cee4 0cbd 094a e63c
00000350: 41b1 56be 4321 823d d7a6 8c3d 9782 a53d
00000360: b30c 5a3b 274c 673d 9d7d e83d a1f4 1b3e
00000370: 1871 0a3d 5f51 313e dd92 793e 3c06 463c
00000380: cb52 44be e83b af3a 3d35 3f3e e361 5fbe
00000390: 1146 45be a00e 75bd e48a de3d e7b5 773c
000003a0: aff3 423e 5dd5 c3bc 66e0 9cbc 125d 8ebc
000003b0: 593b 39be fc32 1e3e 773a f83c 4377 4b3c
000003c0: 99d5 9cbb 8b1d 213e 5c8a 2bbd 3883 36bd
000003d0: 825b 7e3d 42b1 5cbe 7ef9 adbe 71ac 2f3d
000003e0: f194 32be ed46 e03d 1c6f 223e b5cc 4b3e
000003f0: f3b9 223e 7bcf 68be a12d afbd c55c 223e

weight_hh_l0 f4 [64, 16]
0.21099569 0.22845274 0.2970401 0.20777573 0.057256002 -0.32721704 0.2592989 -0.10944911
0.20842719 0.29457188 -0.23751879 0.0096171675 0.017589007 -0.073919535 0.16405626 0.035209037
-0.008040366 -0.17648384 0.16680215 -0.15861753 -0.017155603 0.12813067 -0.026036529 -0.17194004
-0.054874077 0.16492493 0.08357901 -0.09760458 0.12856375 0.15604633 -0.10635999 0.16416216
-0.08733059 -0.047476895 0.18269278 0.27351093 0.0016414152 -0.10899072 0.09724457 -0.027552797
-0.013374228 -0.0698697 -0.0056462684 -0.07057242 -0.18772858 -0.22222124 0.035178125 0.005232686
-0.14351109 -0.09798888 0.021299591 0.22212946 -0.07224782 0.092011176 0.05162248 -0.24612372
0.1476281 0.16218093 -0.006143108 -0.18976128 0.16716163 -0.14249626 -0.098123595 -0.047517747
-0.041352503 0.19306146 -0.039072298 0.24087688 0.1590501 -0.1752158 0.038234226 -0.022463378
0.24500826 0.24047121 0.07946266 -0.06863404 -0.08150928 0.22831784 -0.10539058 0.027418427
0.19666837 0.19263043 0.24796921 -0.10743341 -0.28151086 -0.13007948 0.010023011 -0.34310693
0.18795723 0.21743271 0.13145468 0.15004641 0.23277047 -0.01100681 -0.030167757 0.023718204
0.26150644 0.15753162 0.1800463 0.20310709 0.012284854 -0.09342024 -0.13303559 0.104771145
-0.051125754 0.16103199 0.08973978 -0.025585465 -0.03854507 -0.24698873 0.073415 -0.11279525
0.017063722 -0.14422111 0.047768507 -0.15842372 -0.15503782 -0.18486342 0.2856996 0.060074493
0.020135975 -0.11721806 -0.11877375 -0.14057551 0.27551553 -0.014965796 0.107536174 0.025153922
0.15700331 0.2841325 0.09328425 -0.02014298 -0.3553701 0.066362455 -0.016630078 -0.35324124
-0.21872044 0.24054316 0.07701724 0.057972096 0.38267007 0.10226317 0.33217424 0.07215305
0.21263228 0.042514957 0.00052960106 -0.09704544 -0.039526206 -0.03787093 0.19794188 -0.20056982
0.2501859 0.15278575 -0.102482125 -0.12529992 0.06838829 0.17818698 -0.054279234 0.05159961
0.17547806 0.15733212 -0.047055446 -0.21332967 0.0881591 -0.09204576 0.1161982 0.020435246
-0.18243317 -0.010488734 -0.25179777 -0.087871 -0.22062512 0.27443257 0.23383093 0.21281676
0.104224496 0.11954304 0.208005 0.22644879 0.07622544 -0.03788328 0.20351893 0.21802415
-0.15968892 -0.016644107 -0.06567999 0.060232207 0.07380429 0.10387713 -0.06291707 -0.07896628
0.14057218 0.13695556 0.1337207 -0.14848159 0.04110955 0.08366556 -0.07438418 0.072318956
-0.17117368 0.20472124 -0.28885046 -0.2924262 -0.19767848 0.22926527 0.11583144 -0.021717144
-0.00546224 0.36287022 0.060077813 0.09972137 -0.34468102 -0.3318668 0.11778499 -0.12037529
-0.19220449 0.14662968 -0.044604737 -0.24193837 0.04879789 0.021128282 0.3626224 -0.24672072
-0.1420867 0.18915027 0.1951183 0.15842618 0.06683959 -0.23943026 -0.13015333 -0.07311432
0.11901145 -0.062338345 0.039767615 -0.08061014 -0.16455854 0.120914415 -0.20178512 -0.2289933
-0.075591475 -0.24076095 -0.10931522 0.019144276 0.053975496 -0.023953356 0.12019077 -0.27436876
0.22998407 -0.010106455 0.089778714 0.033872716 0.25924984 -0.08772993 0.25446683 -0.13868909
00000000: 410f 583e 84ef 693e a415 983e 29c3 543e
00000010: 4585 6a3d fe88 a7be d3c2 843e db26 e0bd
00000020: f06d 553e 20d2 963e 2038 73be 5391 1d3c
00000030: d216 903c 2063 97bd 5dfe 273e 5a37 103d
00000040: bdbb 03bc 2eb8 34be 2fce 2a3e a26c 22be
00000050: e889 8cbc b034 033e 8f4a d5bc 0d11 30be
00000060: a4c3 60bd 15e2 283e 792b ab3d e9e4 c7bd
00000070: 37a6 033e 9cca 1f3e 44d3 d9bd 201a 283e
00000080: 61da b2bd 2277 42bd d113 3b3e a009 8c3e
00000090: c124 d73a 8736 dfbd 2928 c73d 67b6 e1bc
000000a0: 941f 5bbc d817 8fbd 5504 b9bb 4688 90bd
000000b0: ec3b 40be f78d 63be f016 103d f476 ab3b
000000c0: 92f4 12be 65ae c8bd 7b7c ae3c e875 633e
000000d0: aaf6 93bd 5b70 bc3d 1872 533d db07 7cbe
000000e0: d22b 173e c212 263e 204c c9bb c850 42be
000000f0: 6b2c 2b3e 8aea 11be 06f5 c8bd f8a1 42bd
00000100: 3e61 29bd e7b1 453e 460a 20bd 6ea8 763e
00000110: 08de 223e c56b 33be 7e9b 1c3d 1e05 b8bc
00000120: 72e3 7a3e 163e 763e 52bd a23d 0190 8cbd
00000130: 56ee a6bd 27cc 693e 04d7 d7bd 9c9c e03c
00000140: 6f63 493e e940 453e a4eb 7d3e 0c06 dcbd
00000150: 3122 90be 8e33 05be 8e37 243c b6ab afbe
00000160: dc77 403e aea6 5e3e 0e9c 063e c4a5 193e
00000170: 625b 6e3e e855 34bc 5f22 f7bc ae4c c23c
00000180: 2ce4 853e f84f 213e 0f5e 383e 4efb 4f3e
00000190: 6a46 493c 1c53 bfbd 7b3a 08be 4192 d63d
000001a0: 3d69 51bd 92e5 243e 7dc9 b73d 9c98 d1bc
000001b0: 6fe1 1dbd 9dea 7cbe 9b5a 963d 3201 e7bd
000001c0: 38c9 8b3c b3ae 13be e9a8 433d d439 22be
000001d0: 3cc2 1ebe d64c 3dbe 3847 923e ac10 763d
000001e0: 33f4 a43c 0610 f0bd a73f f3bd 07f3 0fbe
000001f0: 5f10 8d3e 1933 75bc ed3b dc3d 990f ce3c
00000200: 7ac5 203e d179 913e d00b bf3d e402 a5bc
00000210: 12f3 b5be 0ae9 873d cd3b 88bc 09dc b4be
00000220: 40f8 5fbe f250 763e 37bb 9d3d 2674 6d3d
00000230: 55ed c33e 5a6f d13d be12 aa3e fac4 933d
00000240: 47bc 593e 2a24 2e3d edd4 0a3a c2bf c6bd
00000250: 3be6 21bd 8c1e 1bbd 47b1 4a3e 2d62 4dbe
00000260: 5e18 803e de73 1c3e 26e2 d1bd 9f4e 00be
00000270: 290f 8c3d a676 363e e753 5ebd 1d5a 533d
00000280: 85b0 333e ac1b 213e 36bd 40bd 1873 5abe
00000290: c28c b43d 7d82 bcbd 52f9 ed3d d167 a73c
000002a0: c3cf 3abe f0d8 2bbc a3eb 80be b6f5 b3bd
000002b0: 8deb 61be 6d82 8c3e 6071 6f3e a3ec 593e
000002c0: a773 d53d fbd2 f43d 43ff 543e 31e2 673e
000002d0: 151c 9c3d 802b 1bbd 4467 503e b941 5f3e
000002e0: 7e85 23be 3959 88bc 3b83 86bd 0cb6 763d
000002f0: b426 973d 88bd d43d aada 80bd 13b9 a1bd
00000300: 27f2 0f3e 143e 0c3e 14ee 083e 8f0b 18be
00000310: 7d62 283d d958 ab3d bc56 98bd f61b 943d
00000320: 2748 2fbe 72a2 513e 35e4 93be e3b8 95be
00000330: 3a6c 4abe 84c4 6a3e 0939 ed3d 27e8 b1bc
00000340: 97fc b2bb 20ca b93e 2714 763d b83a cc3d
00000350: 087a b0be 72ea a9be 4239 f13d 5287 f6bd
00000360: 41d1 44be 1726 163e 75b3 36bd b1be 77be
00000370: 4ce0 473d 3815 ad3c a5a9 b93e 5ba4 7cbe
00000380: 2d7f 11be 9cb0 413e 17cd 473e 793a 223e
00000390: 32e3 883d 352d 75be ea46 05be f6bc 95bd
000003a0: 46bc f33d 7e56 7fbd 5ee3 223d ee16 a5bd
000003b0: 0982 28be faa1 f73d c2a0 4ebe 387d 6abe
000003c0: b4cf 9abd 0a8a 76be a8e0 dfbd 75d4 9c3c
000003d0: 6915 5d3d d439 c4bc 9426 f63d 107a 8cbe
000003e0: f280 6b3e 8b95 25bc e7dd b73d 1ebe 0a3d
000003f0: 65bc 843e c0ab b3bd 7a49 823e 8304 0ebe

bias_ih_l0 f4 [64]
-0.019531077 -0.054788038 0.25727016 -0.056654096 -0.144247 -0.06679678 0.108128406 -0.13157022
0.2992402 0.17740703 0.1254508 0.20662095 0.057484876 0.17714128 -0.05407843 0.18316479
-0.23798317 -0.29810634 -0.20493989 -0.19469738 0.12473485 -0.27596822 0.19282846 0.0038948457
-0.269179 0.03238478 -0.06878533 0.18772209 0.011845013 0.11983653 0.07684618 -0.19542378
0.16932194 0.123157956 -0.19595598 -0.048256297 -0.027405301 -0.2270634 0.2141071 -0.06528957
-0.23992091 0.17919256 -0.18167569 0.09994164 0.20978145 -0.24960263 -0.0738291 -0.092555724
-0.06728193 -0.091922626 0.029293517 0.18808424 -0.08716606 -0.028121462 0.21642295 0.15627293
0.31428626 0.086018726 0.04971885 0.04100058 -0.13055496 0.19651681 0.09956475 0.28882033
00000000: a3ff 9fbc 6c69 60bd eab8 833e 200e 68bd
00000010: 7cb5 13be c0cc 88bd 6d72 dd3d 58ba 06be
00000020: 0336 993e 30aa 353e 2d76 003e 7194 533e
00000030: 4375 6b3d 8664 353e 5881 5dbd 8d8f 3b3e
00000040: dcb1 73be 65a1 98be c3db 51be c05e 47be
00000050: fc74 ff3d b54b 8dbe d374 453e ab40 7f3b
00000060: d4d1 89be e7a5 043d 53df 8cbd 383a 403e
00000070: 9611 423c db6c f53d 8861 9d3d 2c1d 48be
00000080: bb62 2d3e 3d3a fc3d afa8 48be 65a8 45bd
00000090: 1581 e0bc 4f83 68be e43e 5b3e 8ab6 85bd
000000a0: d4ad 75be 417e 373e 3109 3abe 34ae cc3d
000000b0: f3d0 563e d597 7fbe b633 97bd db8d bdbd
000000c0: 1ccb 89bd ee41 bcbd f5f8 ef3c 2899 403e
000000d0: 1f84 b2bd fb5e e6bc fa9d 5d3e 0306 203e
000000e0: 21ea a03e 962a b03d fea5 4b3d 39f0 273d
000000f0: 33b0 05be b43b 493e 9be8 cb3d 42e0 933e

bias_hh_l0 f4 [64]
-0.13017611 0.058419175 -0.12604004 0.12328941 -0.026131338 0.12155912 0.033835076 0.19179323
0.0674532 -0.07999524 -0.17586195 0.09175662 -0.010438953 -0.017039547 0.13719167 -0.06208753
0.09555504 0.12964937 0.25559786 -0.024021614 0.06350621 -0.120881364 -0.15781687 0.15701263
-0.29036927 0.19340023 -0.107861854 0.14883819 -0.060669936 -0.22450317 -0.03842267 -0.118823744
0.09014296 -0.14882986 0.26670536 -0.24640705 -0.08259147 0.036359817 -0.05949797 -0.21876682
0.22314283 0.0730022 -0.16166537 -0.14139403 0.058855664 0.12706779 0.0298315 -0.11853464
0.06793498 0.17764038 0.28525412 -0.12970708 0.114917815 0.334085 -0.08272943 0.0007325904
0.29694095 -0.047106963 0.04385717 -0.10959519 0.1748758 0.101279356 0.20413071 -0.14486812
00000000: e34c 05be f248 6f3d a410 01be 287f fc3d
00000010: 6311 d6bc fdf3 f83d a696 0a3d 7265 443e
00000020: e724 8a3d 8bd4 a3bd 2815 34be e5ea bb3d
00000030: 2408 2bbc 8596 8bbc f97b 0c3e 7e4f 7ebd
00000040: 5cb2 c33d cec2 043e b9dd 823e fac8 c4bc
00000050: 8b0f 823d a690 f7bd bf9a 21be ebc7 203e
00000060: 48ab 94be b60a 463e ade6 dcbd 0a69 183e
00000070: 0a81 78bd 29e4 65be 1761 1dbd dd59 f3bd
00000080: df9c b83d db66 18be 9b8d 883e 2152 7cbe
00000090: b725 a9bd 08ee 143d 25b4 73bd 6904 60be
000000a0: 8e7f 643e 2d82 953d 9b8b 25be 99c9 10be
000000b0: a312 713d 0f1e 023e 3161 f43c 4ac2 f2bd
000000c0: 7f21 8b3d 5ce7 353e d40c 923e efd1 04be
000000d0: 085a eb3d 300d ab3e 0c6e a9bd 4f0b 403a
000000e0: a508 983e 3bf3 40bd 93a3 333d 7173 e0bd
000000f0: a412 333e 8d6b cf3d a407 513e 4f58 14be

weight_ih_l0 f4 [32, 16]
0.10464202 -0.1984816 -0.06790791 0.27582082 0.027974466 0.29163375 -0.14642029 -0.19753353
-0.27953413 -0.15515357 -0.35356846 0.13015668 0.28428072 0.21731311 0.2961731 -0.28399625
-0.26801106 0.04826981 -0.23204423 -0.27280295 -0.35706285 0.2762566 -0.21498145 -0.02042398
0.049986385 0.18707828 -0.18123639 -0.04988088 0.12851469 -0.113209926 -0.1645328 -0.2440963
0.11240664 -0.1870964 -0.31516394 0.23765808 -0.16088589 -0.42994303 -0.085650966 -0.16210221
-0.023020368 -0.060176577 -0.33743507 -0.15982684 0.2755601 -0.23043175 -0.07785862 0.16485496
-0.22203623 -0.3333203 -0.10358574 -0.12769611 0.19262327 -0.124228664 0.19527525 -0.092815734
-0.18149482 0.26854834 -0.023499751 0.23015155 -0.37562862 0.50097704 0.116719745 -0.07081062
-0.15352042 0.115771964 -0.28861162 0.22029714 0.067731045 -0.18717301 -0.04821251 -0.39955628
0.037453886 0.3555016 -0.20057467 0.026624637 -0.19575599 0.124003835 -0.21617426 -0.074949324
-0.3929636 0.044467185 -0.19987068 0.14779927 -0.19955158 0.3145903 -0.23173028 0.36618885
0.017979393 0.15613042 -0.29711148 0.15870073 -0.14335169 -0.21796125 -0.11044309 -0.14465204
0.35185578 0.39374524 0.13997841 -0.1678711 0.2081745 -0.13199276 -0.2514823 0.027666563
-0.34827438 -0.015790993 -0.22932017 -0.17813095 -0.22801751 -0.28898844 0.14635563 -0.17150366
0.232399 -0.21719329 -0.25397208 -0.10182255 0.1872583 -0.32644764 -0.2908255 -0.22536345
-0.25154492 -0.20226087 -0.051846266 0.24578856 0.090477034 0.123783745 0.41293296 -0.12612705
0.04805356 0.18090275 0.35291448 0.38329366 0.36066785 0.22614565 -0.07794584 -0.2679324
-0.19048977 0.21955943 -0.29720867 -0.0491959 0.24206252 0.030490935 -0.1980547 0.3181494
-0.14234927 -0.039072502 0.07890263 -0.37196583 -0.090950735 -0.26052368 0.08114453 0.17520848
-0.09683854 0.30557016 0.22133332 -0.28437835 0.1242757 0.12558953 0.16470712 -0.27471006
-0.04975234 0.13071504 -0.27080414 0.24254394 0.2362248 -0.13270523 -0.22113773 -0.33505672
0.0056814053 0.12677841 -0.07193458 0.1582893 0.32591388 0.2620234 -0.3302208 0.052826848
-0.05543953 0.18727922 -0.32404214 -0.08641294 -0.028190177 0.14048041 0.23279491 0.32238445
0.0397588 0.050291557 -0.16215985 0.21810558 -0.428943 0.4942834 0.2923689 0.20911783
-0.05511151 0.10091842 0.0030884936 0.057644125 0.09796995 -0.31701028 -0.0532579 -0.306724
0.26409495 0.017163983 0.3377163 0.27097943 0.12173973 -0.081691585 0.19784613 -0.13387975
-0.31474933 0.01693664 -0.2739118 -0.21717039 -0.047219854 -0.21643734 0.23979425 -0.03298408
0.009355178 -0.1344581 0.26980206 -0.2876654 0.0472881 -0.17975487 0.15890747 0.17337263
-0.17980038 0.16321993 -0.09065216 0.27958518 0.008831181 -0.29208663 0.33950093 0.28715542
0.20926277 0.08264869 0.2634949 0.07948251 -0.11941541 0.36731187 -0.34562653 -0.081643686
0.26819855 0.33425987 -0.024472708 0.2166028 0.057232134 -0.09468849 -0.16219014 0.3394388
-0.1285558 -0.20723236 0.06439497 0.29555574 0.008237422 0.12941231 -0.09041852 -0.118536815
00000000: 8e4e d63d c33e 4bbe 4d13 8bbd 6338 8d3e
00000010: b52a e53c 0551 953e 33ef 15be 3b46 4abe
00000020: 191f 8fbe 94e0 1ebe ed06 b5be cb47 053e
00000030: 3e8d 913e 5487 5e3e 00a4 973e f567 91be
00000040: bf38 89be 90b6 453d 019d 6dbe d4ac 8bbe
00000050: f1d0 b6be 8171 8d3e 1924 5cbe 3150 a7bc
00000060: 86be 4c3d 7391 3f3e 0896 39be e54f 4cbd
00000070: 5b99 033e 9bda e7bd 497b 28be 61f4 79be
00000080: 7435 e63d 3396 3fbe 2b5d a1be a45c 733e
00000090: 45bf 24be 7e21 dcbe c669 afbd 1ffe 25be
000000a0: 3695 bcbc b77b 76bd 4ac4 acbe a6a9 23be
000000b0: 3716 8d3e 4df6 6bbe 5774 9fbd bdcf 283e
000000c0: 775d 63be f5a8 aabe c324 d4bd c5c2 02be
000000d0: 093f 453e 996b febd 3cf6 473e 2d16 bebd
000000e0: c7d9 39be 2b7f 893e 8d82 c0bc d9ac 6b3e
000000f0: 6552 c0be 0840 003f c30a ef3d 2905 91bd
00000100: 7534 1dbe da19 ed3d e7c4 93be 9395 613e
00000110: 93b6 8a3d 48aa 3fbe 7b7a 45bd a492 ccbe
00000120: 3f69 193d 4e04 b63e 7263 4dbe e91b da3c
00000130: 4274 48be b9f5 fd3d c95c 5dbe 087f 99bd
00000140: 8632 c9be 3923 363d e6aa 4cbe b158 173e
00000150: 4057 4cbe fb11 a13e b44a 6dbe 1b7d bb3e
00000160: 8549 933c a7e0 1f3e ff1e 98be 7282 223e
00000170: c9ca 12be 3c31 5fbe fd2f e2bd aa1f 14be
00000180: 7126 b43e fa98 c93e 8056 0f3e 67e6 2bbe
00000190: b22b 553e 1c29 07be 4ac2 80be fda4 e23c
000001a0: 0551 b2be 1d5c 81bc e8d2 6abe f667 36be
000001b0: 6c7d 69be 4bf6 93be 40de 153e a89e 2fbe
000001c0: 01fa 6d3e eb67 5ebe a108 82be 5788 d0bd
000001d0: a4c0 3f3e 2524 a7be 14e7 94be adc5 66be
000001e0: 7fca 80be 791d 4fbe c05c 54bd ffaf 7b3e
000001f0: 064c b93d 5582 fd3d f36b d33e 7327 01be
00000200: cfd3 443d 923e 393e 35b1 b43e 113f c43e
00000210: 75a9 b83e ba92 673e 12a2 9fbd 6f2e 89be
00000220: c00f 43be 30d4 603e bc2b 98be a481 49bd
00000230: 3ddf 773e 20c8 f93c dace 4abe 7ae4 a23e
00000240: 02c4 11be 7d0a 20bd b497 a13d 4e72 bebe
00000250: 6144 babd 5c63 85be 1a2f a63d da69 333e
00000260: 4953 c6bd b173 9c3e 34a5 623e 0a9a 91be
00000270: 4284 fe3d 8b9a 003e fca8 283e cca6 8cbe
00000280: 1cc9 4bbd 2ada 053e d7a6 8abe 705d 783e
00000290: eae4 713e e1e3 07be ee71 62be 8e8c abbe
000002a0: 152b ba3b 33d2 013e 7052 93bd 9716 223e
000002b0: 2fde a63e ee27 863e b312 a9be f760 583d
000002c0: 9014 63bd 20c6 3f3e dae8 a5be 44f9 b0bd
000002d0: 16ef e6bc 19da 0f3e ca61 6e3e 930f a53e
000002e0: 20da 223d 85fe 4d3d 3b0d 26be 1257 5f3e
000002f0: 6b9e dbbe b712 fd3e 60b1 953e fc22 563e
00000300: 9bbc 61bd 51ae ce3d 5368 4a3b 3f1c 6c3d
00000310: 78a4 c83d 2c4f a2be f524 5abd ee0a 9dbe
00000320: 7437 873e 7b9b 8c3c 27e9 ac3e d1bd 8a3e
00000330: ae52 f93d eb4d a7bd 2d98 4a3e c617 09be
00000340: d326 a1be b5be 8a3c 2b3e 8cbe ea61 5ebe
00000350: 9b69 41bd c0a1 5dbe a08c 753e 511a 07bd
00000360: 7646 193c 62af 09be 7f23 8a3e e148 93be
00000370: 2bb1 413d a911 38be a4b8 223e 9888 313e
00000380: 971d 38be 2023 273e d7a7 b9bd ca25 8f3e
00000390: a8b0 103c 618c 95be 11d3 ad3e 0906 933e
000003a0: fb48 563e b743 a93d cee8 863e bac7 a23d
000003b0: 1190 f4bd 4d10 bc3e f6f5 b0be ce34 a7bd
000003c0: 5251 893e 1c24 ab3e fd7a c8bc 20cd 5d3e
000003d0: 3e6c 6a3d 0aec c1bd 2c15 26be ecca ad3e
000003e0: 22a4 03be b834 54be 83e1 833d 1553 973e
000003f0: 41f6 063c a984 043e 582d b9bd 6ec3 f2bd

weight_hh_l0 f4 [32, 8]
0.27697912 -0.13906516 -0.14705932 -0.14142296 0.09175973 -0.20853834 0.32957995 0.053977236
0.18650398 0.36758962 -0.10719956 -0.19954759 -0.010154575 -0.25315267 -0.10872788 0.0014043251
-0.0884037 0.19932416 -0.15049472 0.117280416 0.04566804 -0.09414192 -0.3353856 -0.014072447
-0.23523779 0.17154355 -0.21600334 0.30197677 -0.2618527 0.07118516 0.25020432 0.19389641
-0.27970147 0.27804592 0.0025494401 0.2363376 0.3771066 -0.14409298 -0.5076894 0.31409863
0.3723586 0.11042509 0.19143926 -0.21972308 0.33755618 0.28005025 0.24045196 0.04819301
-0.39361966 0.31731662 0.056171335 -0.22110662 -0.28049648 0.070065156 0.090767644 -0.11835072
-0.25099376 0.28966773 0.03032129 0.1979783 0.4163905 -0.016330184 0.03467541 -0.07843884
0.24364081 -0.1270876 -0.2882376 -0.32502422 -0.2896581 -0.26491788 0.3858362 -0.021708408
-0.474961 -0.089174576 -0.4337608 -0.4449721 -0.032799296 0.090768926 0.20558797 0.20176731
0.30294293 0.3346526 -0.192588 0.053981163 0.05369792 0.20792845 -0.24112521 0.14450009
0.20756002 -0.13283807 -0.2596514 -0.07436983 0.14755206 0.008925625 -0.021497441 0.08399182
-0.15923743 -0.08201971 -0.38455635 0.016611336 -0.1525091 0.23361307 -0.540385 -0.0027380965
0.27971512 -0.37250918 0.1496316 0.3801465 0.07307909 0.19958586 -0.31795514 -0.29928517
-0.08828897 0.20538615 -0.2833768 0.11593627 -0.1686041 -0.2398756 0.24056378 -0.13471399
0.3139456 0.16428141 -0.24738416 0.22180901 0.13117202 0.118946604 -0.10896319 -0.065972276
-0.3203264 -0.101674564 0.32206848 0.32107264 -0.3076066 -0.257085 -0.13515759 -0.018029934
-0.06930501 -0.08411644 -0.3200916 -0.2143914 -0.0057876217 0.09103542 -0.14905773 0.23690942
-0.26999864 0.038084105 -0.2193571 -0.060449347 0.007327799 0.29938257 0.02167028 -0.015806256
0.3163903 -0.18265845 -0.2573902 -0.044054206 -0.08636626 0.12560037 0.27764872 -0.0696713
0.29864824 0.31939352 -0.5711595 -0.04037656 0.043057386 0.014521108 -0.0021250783 -0.101408705
0.25976184 0.015459297 -0.044543456 -0.0040482413 -0.107253864 -0.03485726 0.38420224 0.33999503
-0.1360898 -0.35553858 -0.2495102 0.230165 0.17738707 -0.18109235 0.099578045 0.19728011
0.3762588 -0.2756024 0.25647607 0.05662077 -0.17958315 -0.22550493 0.09922183 -0.31230327
-0.3086737 0.3992763 -0.08339131 -0.25661322 0.40599412 -0.0049545798 -0.16580965 0.1630175
-0.13299806 0.19019675 -0.12663706 0.1835075 0.3684727 0.011419639 0.25460836 -0.05498659
0.28124064 0.28958747 0.16853914 -0.19137652 -0.022010705 0.16684647 -0.10381305 0.26265574
-0.2712181 0.34847465 0.3066768 -0.21106374 -0.025272435 -0.27963358 -0.09460811 0.32141858
0.21598616 0.028466478 0.012653798 0.18942644 -0.1710194 0.31843865 -0.49537843 -0.2085856
-0.16293406 -0.014097813 0.12364127 0.03895378 -0.24787968 -0.3201085 -0.11326356 0.2940308
-0.4817825 0.054426175 -0.034516495 -0.09120565 -0.14436805 -0.36047268 0.29983458 -0.11235043
-0.22375722 -0.15224774 0.12842812 -0.07099677 0.16475476 -0.14891087 -0.4156366 0.07720694
00000000: 35d0 8d3e 1967 0ebe b896 16be 2ed1 10be
00000010: 86ec bb3d 138b 55be b4be a83e 3c17 5d3d
00000020: e6fa 3e3e b534 bc3e 718b dbbd 3456 4cbe
00000030: 605f 26bc 3a9d 81be b9ac debd 5511 b83a
00000040: 000d b5bd a21b 4c3e 4a1b 1abe b730 f03d
00000050: 690e 3b3d 7bcd c0bd a9b7 abbe 1f90 66bc
00000060: 2de2 70be 1da9 2f3e fb2f 5dbe b39c 9a3e
00000070: 8f11 86be 86c9 913d c81a 803e c88c 463e
00000080: 0835 8fbe 095c 8e3e 8214 273b 7c02 723e
00000090: 1e14 c13e 1c8d 13be eff7 01bf 89d1 a03e
000000a0: c9a5 be3e 8d26 e23d a708 443e 16ff 60be
000000b0: 2ad4 ac3e bf62 8f3e 0a39 763e 0966 453d
000000c0: 8488 c9be 5377 a23e ea13 663d c669 62be
000000d0: 3c9d 8fbe 527e 8f3d 63e4 b93d dd61 f2bd
000000e0: 4182 80be 544f 943e 5b64 f83c d3ba 4a3e
000000f0: 2331 d53e e1c6 85bc cd07 0e3d 8ba4 a0bd
00000100: fa7c 793e 4023 02be e193 93be 9369 a6be
00000110: 114e 94be 51a3 87be 538c c53e d5d5 b1bc
00000120: 172e f3be 29a1 b6bd e515 debe 62d3 e3be
00000130: 8e58 06bd 0fe5 b93d a785 523e 179c 4e3e
00000140: 561b 9b3e 9657 ab3e ca35 45be 5a1b 5d3d
00000150: 5af2 5b3d 32eb 543e 87e9 76be d5f7 133e
00000160: 9d8a 543e b406 08be 07f1 84be 364f 98bd
00000170: e317 173e c93c 123c 671b b0bc e703 ac3d
00000180: 230f 23be f3f9 a7bd 92e4 c4be 7f14 883c
00000190: 582b 1cbe 4438 6f3e ac56 0abf a371 33bb
000001a0: d236 8f3e 86b9 bebe 0739 193e 90a2 c23e
000001b0: 7daa 953d 3c60 4c3e 04cb a2be e83b 99be
000001c0: d9d0 b4bd bf50 523e c416 91be ff6f ed3d
000001d0: 8ea6 2cbe f3a1 75be 5a56 763e 77f2 09be
000001e0: 7abd a03e 6339 283e 4652 7dbe e721 633e
000001f0: f551 063e 479a f33d 1828 dfbd 791c 87bd
00000200: d201 a4be c13a d0bd 29e6 a43e a263 a43e
00000210: 9d7e 9dbe a5a0 83be c066 0abe 83b3 93bc
00000220: c9ef 8dbd 3d45 acbd 0ce3 a3be 6b89 5bbe
00000230: 17a6 bdbb c770 ba3d 97a2 18be 6298 723e
00000240: 433d 8abe 14fe 1b3d 269f 60be bc99 77bd
00000250: 091e f03b ac48 993e df85 b13c 1f7c 81bc
00000260: e9fd a13e d10a 3bbe a6c8 83be 2f72 34bd
00000270: cbe0 b0bd 629d 003e f927 8e3e d4af 8ebd
00000280: 6ce8 983e 8c87 a33e 8237 12bf e461 25bd
00000290: f15c 303d f1e9 6d3c e644 0bbb 5eaf cfbd
000002a0: 81ff 843e fe48 7d3c 3373 36bd 1ca7 84bb
000002b0: eaa7 dbbd 7cc6 0ebd 28b6 c43e d413 ae3e
000002c0: 205b 0bbe 2709 b6be 9a7f 7fbe 60b0 6b3e
000002d0: f5a4 353e 4670 39be 93ef cb3d cc03 4a3e
000002e0: fea4 c03e c21b 8dbe d550 833e 2eeb 673d
000002f0: a5e4 37be c4ea 66be d134 cb3d 37e6 9fbe
00000300: 7b0a 9ebe f16d cc3e 10c9 aabd cf62 83be
00000310: 76de cf3e 075a a2bb 01ca 29be 0fee 263e
00000320: a530 08be f0c2 423e 25ad 01be 64e9 3b3e
00000330: 74a8 bc3e 7019 3b3c 075c 823e 9e39 61bd
00000340: c6fe 8f3e cf44 943e 8695 2c3e 35f8 43be
00000350: cb4f b4bc cdd9 2a3e f09b d4bd d07a 863e
00000360: 19dd 8abe 456b b23e be04 9d3e 1821 58be
00000370: 2308 cfbc 222c 8fbe e6c1 c1bd fa90 a43e
00000380: 7a2b 5d3e 8832 e93c e051 4f3c 01f9 413e
00000390: b61f 2fbe 640a a33e 3ea2 fdbe 7797 55be
000003a0: 30d8 26be 83fa 66bc a237 fd3d 008e 1f3d
000003b0: 2cd4 7dbe 43e5 a3be baf6 e7bd 348b 963e
000003c0: 32ac f6be fbed 5e3d 2b61 0dbd 07ca babd
000003d0: 38d5 13be e08f b8be eb83 993e fb17 e6bd
000003e0: 9d20 65be d5e6 1bbe a982 033e c166 91bd
000003f0: 79b5 283e 177c 18be 52ce d4be ac1e 9e3d

bias_ih_l0 f4 [32]
0.2958393 0.37153456 0.29651442 -0.0071520912 -0.19877799 -0.29785836 0.15896155 0.18199234
-0.10746566 0.48190978 0.022458324 -0.2385831 -0.1455618 0.051520154 0.21426216 -0.045898348
-0.25496092 0.40747252 -0.16199774 -0.09361765 0.06285924 -0.07882785 0.33600298 0.19087604
0.17950171 0.22525527 -0.1505032 0.020076634 -0.30955592 -0.33911884 0.121643595 0.0018747696
00000000: 4078 973e c739 be3e bdd0 973e 175c eabb
00000010: 758c 4bbe e480 98be d1c6 223e 335c 3a3e
00000020: f516 dcbd e1bc f63e 85fa b73c 214f 74be
00000030: 270e 15be cc06 533d 8a67 5b3e e8ff 3bbd
00000040: 3d8a 82be 3da0 d03e bce2 25be 9cba bfbd
00000050: 58bc 803d 7f70 a1bd 9508 ac3e 0275 433e
00000060: 4ccf 373e 51a9 663e 831d 1abe c177 a43c
00000070: 1d7e 9ebe fca0 adbe 4720 f93d d4ba f53a

bias_hh_l0 f4 [32]
0.02394994 -0.18388021 0.0620519 0.01370396 0.29585725 0.15420824 -0.21195744 0.30967054
-0.1646465 0.36635536 0.37284788 -0.17555924 -0.3152873 0.05225625 0.048660398 -0.06345726
0.34610775 0.41989192 -0.06589499 -0.22794956 -0.14370717 -0.22439124 -0.25014076 0.34179422
-0.19855528 0.029254192 0.2012506 -0.2163355 0.3090155 -0.35455185 0.41698352 0.3034894
00000000: aa32 c43c 184b 3cbe 222a 7e3d 9386 603c
00000010: 9a7a 973e c4e8 1d3e 5f0b 59be 238d 9e3e
00000020: 1899 28be ee92 bb3e ebe5 be3e cdc5 33be
00000030: 566d a1be a60a 563d 2050 473d e1f5 81bd
00000040: 0935 b13e 13fc d63e f4f3 86bd 9c6b 69be
00000050: f927 13be d1c6 65be 7312 80be a7ff ae3e
00000060: 1352 4bbe 7da6 ef3c a314 4e3e 0e87 5dbe
00000070: 4837 9e3e d287 b5be dd7e d53e f662 9b3e

weight_ih_l0 f4 [32, 16]
-0.07064115 -0.26540864 -0.25953284 0.08561454 -0.1933624 -0.105742045 -0.31386808 -0.21367046
-0.3205446 0.20916246 -0.32874796 0.20025511 -0.025666175 0.0050738915 -0.34049296 0.3118156
-0.16763785 -0.04284429 0.03762052 -0.40388146 0.22776838 -0.2954717 -0.38123098 -0.31826973
-0.26639327 -0.28156513 -0.08785937 0.18127565 -0.13947181 0.013092104 0.120183446 0.24449424
0.13283184 -0.13885142 0.23574905 0.19892964 0.18657403 -0.1679485 -0.061208893 0.28156352
-0.33273676 -0.045071937 0.14436571 0.022162931 0.22902234 0.15197049 0.14085327 0.10594653
0.048979606 -0.08266155 0.21519823 -0.35625637 -0.018207934 -0.12068125 0.18590268 0.2361896
-0.059127226 -0.18646616 0.2500628 0.070480265 0.43197897 -0.4082015 0.22289424 0.0016407303
0.1426486 -0.15744357 0.32469893 -0.18234049 -0.265952 0.22405621 0.42275825 -0.189315
-0.11302513 -0.09773335 -0.046021234 -0.24024494 0.31178698 0.008032832 -0.19623595 -0.1847814
0.22223227 0.46059135 -0.09795091 -0.17933398 -0.46685067 -0.31562337 -0.112139635 0.0033501699
-0.017003007 0.101661414 -0.31568938 -0.39598292 0.40433654 -0.1099783 0.25561038 -0.33047667
0.20097993 -0.111982964 -0.023340426 -0.023085944 0.2151144 0.16254628 -0.32325512 -0.26173618
-0.2959223 0.32428852 -0.12974826 0.14253889 -0.28238314 -0.15223545 -0.34815994 -0.05333411
-0.2498488 -0.15808433 0.13899012 0.054161765 0.007767617 -0.018836858 -0.17018834 -0.088599384
-0.077149875 0.19096428 -0.042336233 -0.2749105 0.19899476 0.052511197 0.14732878 -0.18447588
0.06644793 0.14692748 0.036777228 0.13492179 -0.28366604 0.2134797 0.076380655 0.01699429
-0.11714717 -0.097876415 -0.07533325 0.14335215 -0.24845648 0.114702486 0.24606965 0.027229067
0.25553477 0.075869404 -0.12498476 -0.252083 0.039027806 -0.23302937 0.2896975 -0.20740569
-0.113059044 0.060128704 -0.19368704 -0.11149956 -0.15788962 0.00061516016 -0.30039176 0.3000072
-0.26225343 -0.31124803 0.15960728 -0.035254505 0.014080126 -0.26601738 -0.089603655 0.017738275
0.09059514 0.065466166 -0.0016061681 0.21788739 0.35753784 -0.16727522 -0.020447519 0.23477565
0.14289936 0.2833607 -0.21675396 -0.32460237 0.29373857 -0.44815567 -0.43827358 0.021207495
-0.019915257 -0.3317263 -0.010879452 0.023198273 -0.07108428 -0.06469992 -0.277647 0.15362966
0.19264235 0.058131512 -0.14139257 -0.18406166 -0.18341239 0.02153521 -0.17403336 -0.40504035
0.33922172 -0.097260505 0.15978248 0.22737132 -0.25160778 -0.13832429 -0.051634505 -0.23774521
0.3394477 -0.0642377 -0.040887047 -0.27071556 -0.18430556 0.07316525 0.25939205 -0.35592818
-0.30473137 -0.16466574 0.035128377 -0.24039571 -0.045484815 0.24624605 -0.12266047 -0.2965054
0.42420968 -0.2859421 -0.20247678 0.29276216 -0.17456461 -0.38221413 0.2542293 0.2242464
-0.19845073 0.21679877 0.36797303 0.19447851 0.31949797 -0.27993298 0.1840184 -0.086027235
-0.32752267 0.23321848 0.2777625 0.17207874 0.026776582 -0.31415704 0.19109744 -0.16793312
-0.115215875 0.36860114 -0.016285185 -0.29948914 -0.10454838 0.017078014 -0.0819794 -0.20673652
00000000: 4fac 90bd a4e3 87be 7de1 84be ad56 af3d
00000010: cb00 46be 498f d8bd 51b3 a0be 6ecc 5abe
00000020: 6c1e a4be af2e 563e a751 a8be ad0f 4d3e
00000030: df41 d2bc e342 a63b 1855 aebe 4ba6 9f3e
00000040: 42a9 2bbe 7f7d 2fbd f917 1a3d 8dc9 cebe
00000050: 1d3c 693e 1148 97be b530 c3be 40f4 a2be
00000060: b364 88be 4e29 90be 9def b3bd 53a0 393e
00000070: b3d1 0ebe 4480 563c bd22 f63d b35c 7a3e
00000080: 1205 083e 112f 0ebe 3368 713e 36b4 4b3e
00000090: 430d 3f3e b1fa 2bbe 2db6 7abd 1829 903e
000000a0: 795c aabe 5a9d 38bd 9bd4 133e 098f b53c
000000b0: d584 6a3e 279e 1b3e d73b 103e 7ffa d83d
000000c0: d79e 483d 754a a9bd ed5c 5c3e 3c67 b6be
000000d0: ce28 95bc bb27 f7bd 465d 3e3e b0db 713e
000000e0: 642f 72bd fcf0 3ebe 3b08 803e f557 903d
000000f0: 592c dd3e c9ff d0be 633e 643e c60d d73a
00000100: 7912 123e e338 21be f03e a63e 77b7 3abe
00000110: dc2a 88be fe6e 653e c573 d83e cbdb 41be
00000120: b879 e7bd 6c28 c8bd c380 3cbd c502 76be
00000130: 8ba2 9f3e 249c 033c 14f2 48be 5637 3dbe
00000140: db90 633e a1d2 eb3e 7d9a c8bd 54a3 37be
00000150: 0d07 efbe 6399 a1be 77a9 e5bd 868e 5b3b
00000160: e449 8bbc dc33 d03d 0aa2 a1be 46be cabe
00000170: 3305 cf3e 4e3c e1bd 5ddf 823e 3d34 a9be
00000180: afcd 4d3e 5357 e5bd 6c34 bfbc bc1e bdbc
00000190: f346 5c3e 8872 263e b281 a5be 4902 86be
000001a0: 2183 97be 2509 a63e badc 04be b7f5 113e
000001b0: 8694 90be 9ce3 1bbe 0542 b2be de74 5abd
000001c0: 5dd8 7fbe dce0 21be 6d53 0e3e bad8 5d3d
000001d0: 7e87 fe3b c14f 9abc da45 2ebe 9873 b5bd
000001e0: c100 9ebd 248c 433e c268 2dbd 12c1 8cbe
000001f0: 48c5 4b3e fb15 573d 5bdd 163e 3fe7 3cbe
00000200: da15 883d 2874 163e b8a3 163d f028 0a3e
00000210: ad3c 91be 6c9a 5a3e 766d 9c3d 9c37 8b3c
00000220: dbea efbd 6e73 c8bd 5248 9abd e8ca 123e
00000230: 606b 7ebe 23e9 ea3d aff9 7b3e 7e0f df3c
00000240: 74d5 823e 6b61 9b3d 03f8 ffbd 0611 81be
00000250: 9fdb 1f3d 409f 6ebe 3b53 943e 2862 54be
00000260: 808b e7bd 8449 763d e555 46be e259 e4bd
00000270: d1ad 21be b342 213a f3cc 99be 8b9a 993e
00000280: 1546 86be e75b 9fbe 1770 233e 0767 10bd
00000290: 54b0 663c 6e33 88be 1f82 b7bd dc4f 913c
000002a0: f289 b93d 2013 863d 0f86 d2ba df1d 5f3e
000002b0: 330f b73e 324a 2bbe 8e81 a7bc 0769 703e
000002c0: 3654 123e a714 913e c0f4 5dbe 4832 a6be
000002d0: e764 963e a974 e5be 6565 e0be 57bb ad3c
000002e0: 5225 a3bc 08d8 a9be bb3f 32bc 4e0a be3c
000002f0: a394 91bd 6481 84bd bf27 8ebe 1851 1d3e
00000300: 0944 453e 4f1b 6e3d 37c9 10be a97a 3cbe
00000310: 75d0 3bbe 9c6a b03c cd35 32be 7361 cfbe
00000320: 78ae ad3e 8430 c7bd 059e 233e 07d4 683e
00000330: bcd2 80be e2a4 0dbe b47e 53bd 7b73 73be
00000340: 17cc ad3e 0e8f 83bd 2d79 27bd 3b9b 8abe
00000350: 99ba 3cbe aad7 953d 09cf 843e 383c b6be
00000360: c005 9cbe 239e 28be c6e2 0f3d 4b2a 76be
00000370: 494e 3abd ed27 7c3e 6a35 fbbd 8ecf 97be
00000380: 0332 d93e 0167 92be 1356 4fbe ece4 953e
00000390: 11c1 32be 92b1 c3be 582a 823e d9a0 653e
000003a0: ab36 4bbe 7f00 5e3e f666 bc3e 6025 473e
000003b0: 3d95 a33e 6053 8fbe 526f 3c3e 0c2f b0bd
000003c0: 0db1 a7be d3d0 6e3e e336 8e3e 6935 303e
000003d0: 905a db3c 31d9 a0be 0caf 433e a9f6 2bbe
000003e0: 4df6 ebbd 4ab9 bc3e 8268 85bc a456 99be
000003f0: 761d d6bd 31e7 8b3c d1e4 a7bd bdb2 53be
